{"format": "graph-model", "generatedBy": "2.13.0", "convertedBy": "TensorFlow.js Converter v3.18.0", "signature": {"outputs": {"Identity:0": {"name": "Identity:0"}}}, "modelTopology": {"node": [{"name": "ConstantFolding/PartitionedCall/model_4/tf.math.divide/truediv_recip", "op": "Const", "attr": {"value": {"tensor": {"dtype": "DT_FLOAT", "tensorShape": {"dim": [{"size": "1"}, {"size": "1"}, {"size": "1"}]}}}, "dtype": {"type": "DT_FLOAT"}}}, {"name": "13863", "op": "Const", "attr": {"value": {"tensor": {"dtype": "DT_FLOAT", "tensorShape": {"dim": [{"size": "1"}, {"size": "2"}, {"size": "8400"}]}}}, "dtype": {"type": "DT_FLOAT"}}}, {"name": "13855", "op": "Const", "attr": {"dtype": {"type": "DT_INT64"}, "value": {"tensor": {"dtype": "DT_INT64", "tensorShape": {"dim": [{"size": "3"}]}}}}}, {"name": "13857", "op": "Const", "attr": {"value": {"tensor": {"dtype": "DT_INT64", "tensorShape": {"dim": [{"size": "3"}]}}}, "dtype": {"type": "DT_INT64"}}}, {"name": "PartitionedCall/model_4/tf.strided_slice_19/ones_like", "op": "Const", "attr": {"dtype": {"type": "DT_INT64"}, "value": {"tensor": {"dtype": "DT_INT64", "tensorShape": {"dim": [{"size": "3"}]}}}}}, {"name": "13865", "op": "Const", "attr": {"value": {"tensor": {"dtype": "DT_FLOAT", "tensorShape": {"dim": [{"size": "1"}, {"size": "2"}, {"size": "8400"}]}}}, "dtype": {"type": "DT_FLOAT"}}}, {"name": "13849", "op": "Const", "attr": {"value": {"tensor": {"dtype": "DT_INT64", "tensorShape": {"dim": [{"size": "3"}]}}}, "dtype": {"type": "DT_INT64"}}}, {"name": "13851", "op": "Const", "attr": {"dtype": {"type": "DT_INT64"}, "value": {"tensor": {"dtype": "DT_INT64", "tensorShape": {"dim": [{"size": "3"}]}}}}}, {"name": "PartitionedCall/model_4/tf.strided_slice_16/StridedSlice/strides", "op": "Const", "attr": {"dtype": {"type": "DT_INT64"}, "value": {"tensor": {"dtype": "DT_INT64", "tensorShape": {"dim": [{"size": "3"}]}}}}}, {"name": "PartitionedCall/model_4/tf.reshape_3/Reshape/shape", "op": "Const", "attr": {"dtype": {"type": "DT_INT32"}, "value": {"tensor": {"dtype": "DT_INT32", "tensorShape": {"dim": [{"size": "4"}]}}}}}, {"name": "PartitionedCall/model_4/tf.compat.v1.transpose_4/transpose/perm", "op": "Const", "attr": {"value": {"tensor": {"dtype": "DT_INT32", "tensorShape": {"dim": [{"size": "4"}]}}}, "dtype": {"type": "DT_INT32"}}}, {"name": "PartitionedCall/model_4/tf.compat.v1.transpose_5/transpose/perm", "op": "Const", "attr": {"value": {"tensor": {"dtype": "DT_INT32", "tensorShape": {"dim": [{"size": "4"}]}}}, "dtype": {"type": "DT_INT32"}}}, {"name": "13853", "op": "Const", "attr": {"value": {"tensor": {"dtype": "DT_FLOAT", "tensorShape": {"dim": [{"size": "1"}, {"size": "1"}, {"size": "16"}, {"size": "1"}]}}}, "dtype": {"type": "DT_FLOAT"}}}, {"name": "PartitionedCall/model_4/tf.compat.v1.transpose_8/transpose/perm", "op": "Const", "attr": {"dtype": {"type": "DT_INT32"}, "value": {"tensor": {"dtype": "DT_INT32", "tensorShape": {"dim": [{"size": "4"}]}}}}}, {"name": "PartitionedCall/model_4/tf.reshape_4/Reshape/shape", "op": "Const", "attr": {"value": {"tensor": {"dtype": "DT_INT32", "tensorShape": {"dim": [{"size": "3"}]}}}, "dtype": {"type": "DT_INT32"}}}, {"name": "13859", "op": "Const", "attr": {"dtype": {"type": "DT_INT64"}, "value": {"tensor": {"dtype": "DT_INT64", "tensorShape": {"dim": [{"size": "3"}]}}}}}, {"name": "13861", "op": "Const", "attr": {"dtype": {"type": "DT_INT64"}, "value": {"tensor": {"dtype": "DT_INT64", "tensorShape": {"dim": [{"size": "3"}]}}}}}, {"name": "PartitionedCall/model_4/tf.strided_slice_18/ones_like", "op": "Const", "attr": {"dtype": {"type": "DT_INT64"}, "value": {"tensor": {"dtype": "DT_INT64", "tensorShape": {"dim": [{"size": "3"}]}}}}}, {"name": "PartitionedCall/model_4/tf.concat_17/concat/axis", "op": "Const", "attr": {"dtype": {"type": "DT_INT32"}, "value": {"tensor": {"dtype": "DT_INT32", "tensorShape": {}}}}}, {"name": "PartitionedCall/model_4/tf.math.multiply_252/Mul/y", "op": "Const", "attr": {"value": {"tensor": {"dtype": "DT_FLOAT", "tensorShape": {"dim": [{"size": "1"}, {"size": "1"}, {"size": "8400"}]}}}, "dtype": {"type": "DT_FLOAT"}}}, {"name": "13787", "op": "Const", "attr": {"value": {"tensor": {"dtype": "DT_FLOAT", "tensorShape": {"dim": [{"size": "3"}, {"size": "3"}, {"size": "128"}, {"size": "64"}]}}}, "dtype": {"type": "DT_FLOAT"}}}, {"name": "13799", "op": "Const", "attr": {"dtype": {"type": "DT_FLOAT"}, "value": {"tensor": {"dtype": "DT_FLOAT", "tensorShape": {"dim": [{"size": "64"}]}}}}}, {"name": "13811", "op": "Const", "attr": {"dtype": {"type": "DT_FLOAT"}, "value": {"tensor": {"dtype": "DT_FLOAT", "tensorShape": {"dim": [{"size": "3"}, {"size": "3"}, {"size": "64"}, {"size": "64"}]}}}}}, {"name": "13823", "op": "Const", "attr": {"value": {"tensor": {"dtype": "DT_FLOAT", "tensorShape": {"dim": [{"size": "64"}]}}}, "dtype": {"type": "DT_FLOAT"}}}, {"name": "13835", "op": "Const", "attr": {"value": {"tensor": {"dtype": "DT_FLOAT", "tensorShape": {"dim": [{"size": "1"}, {"size": "1"}, {"size": "64"}, {"size": "64"}]}}}, "dtype": {"type": "DT_FLOAT"}}}, {"name": "13845", "op": "Const", "attr": {"value": {"tensor": {"dtype": "DT_FLOAT", "tensorShape": {"dim": [{"size": "64"}]}}}, "dtype": {"type": "DT_FLOAT"}}}, {"name": "13785", "op": "Const", "attr": {"dtype": {"type": "DT_FLOAT"}, "value": {"tensor": {"dtype": "DT_FLOAT", "tensorShape": {"dim": [{"size": "3"}, {"size": "3"}, {"size": "128"}, {"size": "128"}]}}}}}, {"name": "13797", "op": "Const", "attr": {"dtype": {"type": "DT_FLOAT"}, "value": {"tensor": {"dtype": "DT_FLOAT", "tensorShape": {"dim": [{"size": "128"}]}}}}}, {"name": "13809", "op": "Const", "attr": {"value": {"tensor": {"dtype": "DT_FLOAT", "tensorShape": {"dim": [{"size": "3"}, {"size": "3"}, {"size": "128"}, {"size": "128"}]}}}, "dtype": {"type": "DT_FLOAT"}}}, {"name": "13821", "op": "Const", "attr": {"dtype": {"type": "DT_FLOAT"}, "value": {"tensor": {"dtype": "DT_FLOAT", "tensorShape": {"dim": [{"size": "128"}]}}}}}, {"name": "13833", "op": "Const", "attr": {"value": {"tensor": {"dtype": "DT_FLOAT", "tensorShape": {"dim": [{"size": "1"}, {"size": "1"}, {"size": "128"}, {"size": "8"}]}}}, "dtype": {"type": "DT_FLOAT"}}}, {"name": "13847", "op": "Const", "attr": {"dtype": {"type": "DT_FLOAT"}, "value": {"tensor": {"dtype": "DT_FLOAT", "tensorShape": {"dim": [{"size": "8"}]}}}}}, {"name": "PartitionedCall/model_4/tf.concat_10/concat/axis", "op": "Const", "attr": {"dtype": {"type": "DT_INT32"}, "value": {"tensor": {"dtype": "DT_INT32", "tensorShape": {}}}}}, {"name": "PartitionedCall/model_4/tf.compat.v1.transpose/transpose/perm", "op": "Const", "attr": {"dtype": {"type": "DT_INT32"}, "value": {"tensor": {"dtype": "DT_INT32", "tensorShape": {"dim": [{"size": "4"}]}}}}}, {"name": "PartitionedCall/model_4/tf.reshape/Reshape/shape", "op": "Const", "attr": {"dtype": {"type": "DT_INT32"}, "value": {"tensor": {"dtype": "DT_INT32", "tensorShape": {"dim": [{"size": "3"}]}}}}}, {"name": "13783", "op": "Const", "attr": {"dtype": {"type": "DT_FLOAT"}, "value": {"tensor": {"dtype": "DT_FLOAT", "tensorShape": {"dim": [{"size": "3"}, {"size": "3"}, {"size": "256"}, {"size": "64"}]}}}}}, {"name": "13795", "op": "Const", "attr": {"dtype": {"type": "DT_FLOAT"}, "value": {"tensor": {"dtype": "DT_FLOAT", "tensorShape": {"dim": [{"size": "64"}]}}}}}, {"name": "13807", "op": "Const", "attr": {"value": {"tensor": {"dtype": "DT_FLOAT", "tensorShape": {"dim": [{"size": "3"}, {"size": "3"}, {"size": "64"}, {"size": "64"}]}}}, "dtype": {"type": "DT_FLOAT"}}}, {"name": "13819", "op": "Const", "attr": {"value": {"tensor": {"dtype": "DT_FLOAT", "tensorShape": {"dim": [{"size": "64"}]}}}, "dtype": {"type": "DT_FLOAT"}}}, {"name": "13831", "op": "Const", "attr": {"dtype": {"type": "DT_FLOAT"}, "value": {"tensor": {"dtype": "DT_FLOAT", "tensorShape": {"dim": [{"size": "1"}, {"size": "1"}, {"size": "64"}, {"size": "64"}]}}}}}, {"name": "13841", "op": "Const", "attr": {"dtype": {"type": "DT_FLOAT"}, "value": {"tensor": {"dtype": "DT_FLOAT", "tensorShape": {"dim": [{"size": "64"}]}}}}}, {"name": "13781", "op": "Const", "attr": {"dtype": {"type": "DT_FLOAT"}, "value": {"tensor": {"dtype": "DT_FLOAT", "tensorShape": {"dim": [{"size": "3"}, {"size": "3"}, {"size": "256"}, {"size": "128"}]}}}}}, {"name": "13793", "op": "Const", "attr": {"dtype": {"type": "DT_FLOAT"}, "value": {"tensor": {"dtype": "DT_FLOAT", "tensorShape": {"dim": [{"size": "128"}]}}}}}, {"name": "13805", "op": "Const", "attr": {"value": {"tensor": {"dtype": "DT_FLOAT", "tensorShape": {"dim": [{"size": "3"}, {"size": "3"}, {"size": "128"}, {"size": "128"}]}}}, "dtype": {"type": "DT_FLOAT"}}}, {"name": "13817", "op": "Const", "attr": {"value": {"tensor": {"dtype": "DT_FLOAT", "tensorShape": {"dim": [{"size": "128"}]}}}, "dtype": {"type": "DT_FLOAT"}}}, {"name": "13829", "op": "Const", "attr": {"dtype": {"type": "DT_FLOAT"}, "value": {"tensor": {"dtype": "DT_FLOAT", "tensorShape": {"dim": [{"size": "1"}, {"size": "1"}, {"size": "128"}, {"size": "8"}]}}}}}, {"name": "13843", "op": "Const", "attr": {"value": {"tensor": {"dtype": "DT_FLOAT", "tensorShape": {"dim": [{"size": "8"}]}}}, "dtype": {"type": "DT_FLOAT"}}}, {"name": "PartitionedCall/model_4/tf.concat_13/concat/axis", "op": "Const", "attr": {"value": {"tensor": {"dtype": "DT_INT32", "tensorShape": {}}}, "dtype": {"type": "DT_INT32"}}}, {"name": "PartitionedCall/model_4/tf.compat.v1.transpose_1/transpose/perm", "op": "Const", "attr": {"value": {"tensor": {"dtype": "DT_INT32", "tensorShape": {"dim": [{"size": "4"}]}}}, "dtype": {"type": "DT_INT32"}}}, {"name": "PartitionedCall/model_4/tf.reshape_1/Reshape/shape", "op": "Const", "attr": {"value": {"tensor": {"dtype": "DT_INT32", "tensorShape": {"dim": [{"size": "3"}]}}}, "dtype": {"type": "DT_INT32"}}}, {"name": "13779", "op": "Const", "attr": {"value": {"tensor": {"dtype": "DT_FLOAT", "tensorShape": {"dim": [{"size": "3"}, {"size": "3"}, {"size": "512"}, {"size": "64"}]}}}, "dtype": {"type": "DT_FLOAT"}}}, {"name": "13791", "op": "Const", "attr": {"dtype": {"type": "DT_FLOAT"}, "value": {"tensor": {"dtype": "DT_FLOAT", "tensorShape": {"dim": [{"size": "64"}]}}}}}, {"name": "13803", "op": "Const", "attr": {"value": {"tensor": {"dtype": "DT_FLOAT", "tensorShape": {"dim": [{"size": "3"}, {"size": "3"}, {"size": "64"}, {"size": "64"}]}}}, "dtype": {"type": "DT_FLOAT"}}}, {"name": "13815", "op": "Const", "attr": {"value": {"tensor": {"dtype": "DT_FLOAT", "tensorShape": {"dim": [{"size": "64"}]}}}, "dtype": {"type": "DT_FLOAT"}}}, {"name": "13827", "op": "Const", "attr": {"value": {"tensor": {"dtype": "DT_FLOAT", "tensorShape": {"dim": [{"size": "1"}, {"size": "1"}, {"size": "64"}, {"size": "64"}]}}}, "dtype": {"type": "DT_FLOAT"}}}, {"name": "13837", "op": "Const", "attr": {"value": {"tensor": {"dtype": "DT_FLOAT", "tensorShape": {"dim": [{"size": "64"}]}}}, "dtype": {"type": "DT_FLOAT"}}}, {"name": "13769", "op": "Const", "attr": {"dtype": {"type": "DT_INT64"}, "value": {"tensor": {"dtype": "DT_INT64", "tensorShape": {"dim": [{"size": "4"}]}}}}}, {"name": "13771", "op": "Const", "attr": {"dtype": {"type": "DT_INT64"}, "value": {"tensor": {"dtype": "DT_INT64", "tensorShape": {"dim": [{"size": "4"}]}}}}}, {"name": "PartitionedCall/model_4/tf.strided_slice_14/ones_like", "op": "Const", "attr": {"value": {"tensor": {"dtype": "DT_INT64", "tensorShape": {"dim": [{"size": "4"}]}}}, "dtype": {"type": "DT_INT64"}}}, {"name": "13739", "op": "Const", "attr": {"dtype": {"type": "DT_INT64"}, "value": {"tensor": {"dtype": "DT_INT64", "tensorShape": {"dim": [{"size": "4"}]}}}}}, {"name": "13741", "op": "Const", "attr": {"value": {"tensor": {"dtype": "DT_INT64", "tensorShape": {"dim": [{"size": "4"}]}}}, "dtype": {"type": "DT_INT64"}}}, {"name": "PartitionedCall/model_4/tf.strided_slice_12/ones_like", "op": "Const", "attr": {"dtype": {"type": "DT_INT64"}, "value": {"tensor": {"dtype": "DT_INT64", "tensorShape": {"dim": [{"size": "4"}]}}}}}, {"name": "13709", "op": "Const", "attr": {"value": {"tensor": {"dtype": "DT_INT64", "tensorShape": {"dim": [{"size": "4"}]}}}, "dtype": {"type": "DT_INT64"}}}, {"name": "13711", "op": "Const", "attr": {"dtype": {"type": "DT_INT64"}, "value": {"tensor": {"dtype": "DT_INT64", "tensorShape": {"dim": [{"size": "4"}]}}}}}, {"name": "PartitionedCall/model_4/tf.strided_slice_10/ones_like", "op": "Const", "attr": {"dtype": {"type": "DT_INT64"}, "value": {"tensor": {"dtype": "DT_INT64", "tensorShape": {"dim": [{"size": "4"}]}}}}}, {"name": "PartitionedCall/model_4/lambda_1//model.13/Resize/size", "op": "Const", "attr": {"value": {"tensor": {"dtype": "DT_INT32", "tensorShape": {"dim": [{"size": "2"}]}}}, "dtype": {"type": "DT_INT32"}}}, {"name": "PartitionedCall/model_4/tf.concat_7/concat/axis", "op": "Const", "attr": {"value": {"tensor": {"dtype": "DT_INT32", "tensorShape": {}}}, "dtype": {"type": "DT_INT32"}}}, {"name": "13693", "op": "Const", "attr": {"value": {"tensor": {"dtype": "DT_FLOAT", "tensorShape": {"dim": [{"size": "1"}, {"size": "1"}, {"size": "384"}, {"size": "128"}]}}}, "dtype": {"type": "DT_FLOAT"}}}, {"name": "13695", "op": "Const", "attr": {"dtype": {"type": "DT_FLOAT"}, "value": {"tensor": {"dtype": "DT_FLOAT", "tensorShape": {"dim": [{"size": "128"}]}}}}}, {"name": "13697", "op": "Const", "attr": {"dtype": {"type": "DT_INT64"}, "value": {"tensor": {"dtype": "DT_INT64", "tensorShape": {"dim": [{"size": "4"}]}}}}}, {"name": "13699", "op": "Const", "attr": {"value": {"tensor": {"dtype": "DT_INT64", "tensorShape": {"dim": [{"size": "4"}]}}}, "dtype": {"type": "DT_INT64"}}}, {"name": "PartitionedCall/model_4/tf.strided_slice_11/ones_like", "op": "Const", "attr": {"dtype": {"type": "DT_INT64"}, "value": {"tensor": {"dtype": "DT_INT64", "tensorShape": {"dim": [{"size": "4"}]}}}}}, {"name": "13701", "op": "Const", "attr": {"dtype": {"type": "DT_FLOAT"}, "value": {"tensor": {"dtype": "DT_FLOAT", "tensorShape": {"dim": [{"size": "3"}, {"size": "3"}, {"size": "64"}, {"size": "64"}]}}}}}, {"name": "13703", "op": "Const", "attr": {"dtype": {"type": "DT_FLOAT"}, "value": {"tensor": {"dtype": "DT_FLOAT", "tensorShape": {"dim": [{"size": "64"}]}}}}}, {"name": "13705", "op": "Const", "attr": {"value": {"tensor": {"dtype": "DT_FLOAT", "tensorShape": {"dim": [{"size": "3"}, {"size": "3"}, {"size": "64"}, {"size": "64"}]}}}, "dtype": {"type": "DT_FLOAT"}}}, {"name": "13707", "op": "Const", "attr": {"dtype": {"type": "DT_FLOAT"}, "value": {"tensor": {"dtype": "DT_FLOAT", "tensorShape": {"dim": [{"size": "64"}]}}}}}, {"name": "PartitionedCall/model_4/tf.concat_8/concat/axis", "op": "Const", "attr": {"value": {"tensor": {"dtype": "DT_INT32", "tensorShape": {}}}, "dtype": {"type": "DT_INT32"}}}, {"name": "13713", "op": "Const", "attr": {"value": {"tensor": {"dtype": "DT_FLOAT", "tensorShape": {"dim": [{"size": "1"}, {"size": "1"}, {"size": "192"}, {"size": "128"}]}}}, "dtype": {"type": "DT_FLOAT"}}}, {"name": "13715", "op": "Const", "attr": {"value": {"tensor": {"dtype": "DT_FLOAT", "tensorShape": {"dim": [{"size": "128"}]}}}, "dtype": {"type": "DT_FLOAT"}}}, {"name": "13717", "op": "Const", "attr": {"value": {"tensor": {"dtype": "DT_INT32", "tensorShape": {"dim": [{"size": "4"}, {"size": "2"}]}}}, "dtype": {"type": "DT_INT32"}}}, {"name": "13719", "op": "Const", "attr": {"value": {"tensor": {"dtype": "DT_FLOAT", "tensorShape": {"dim": [{"size": "3"}, {"size": "3"}, {"size": "128"}, {"size": "128"}]}}}, "dtype": {"type": "DT_FLOAT"}}}, {"name": "13721", "op": "Const", "attr": {"dtype": {"type": "DT_FLOAT"}, "value": {"tensor": {"dtype": "DT_FLOAT", "tensorShape": {"dim": [{"size": "128"}]}}}}}, {"name": "13685", "op": "Const", "attr": {"dtype": {"type": "DT_INT64"}, "value": {"tensor": {"dtype": "DT_INT64", "tensorShape": {"dim": [{"size": "4"}]}}}}}, {"name": "13687", "op": "Const", "attr": {"value": {"tensor": {"dtype": "DT_INT64", "tensorShape": {"dim": [{"size": "4"}]}}}, "dtype": {"type": "DT_INT64"}}}, {"name": "PartitionedCall/model_4/tf.strided_slice_8/ones_like", "op": "Const", "attr": {"value": {"tensor": {"dtype": "DT_INT64", "tensorShape": {"dim": [{"size": "4"}]}}}, "dtype": {"type": "DT_INT64"}}}, {"name": "PartitionedCall/model_4/lambda//model.10/Resize/size", "op": "Const", "attr": {"value": {"tensor": {"dtype": "DT_INT32", "tensorShape": {"dim": [{"size": "2"}]}}}, "dtype": {"type": "DT_INT32"}}}, {"name": "PartitionedCall/model_4/tf.concat_5/concat/axis", "op": "Const", "attr": {"dtype": {"type": "DT_INT32"}, "value": {"tensor": {"dtype": "DT_INT32", "tensorShape": {}}}}}, {"name": "13669", "op": "Const", "attr": {"dtype": {"type": "DT_FLOAT"}, "value": {"tensor": {"dtype": "DT_FLOAT", "tensorShape": {"dim": [{"size": "1"}, {"size": "1"}, {"size": "768"}, {"size": "256"}]}}}}}, {"name": "13671", "op": "Const", "attr": {"dtype": {"type": "DT_FLOAT"}, "value": {"tensor": {"dtype": "DT_FLOAT", "tensorShape": {"dim": [{"size": "256"}]}}}}}, {"name": "13673", "op": "Const", "attr": {"dtype": {"type": "DT_INT64"}, "value": {"tensor": {"dtype": "DT_INT64", "tensorShape": {"dim": [{"size": "4"}]}}}}}, {"name": "13675", "op": "Const", "attr": {"value": {"tensor": {"dtype": "DT_INT64", "tensorShape": {"dim": [{"size": "4"}]}}}, "dtype": {"type": "DT_INT64"}}}, {"name": "PartitionedCall/model_4/tf.strided_slice_9/ones_like", "op": "Const", "attr": {"value": {"tensor": {"dtype": "DT_INT64", "tensorShape": {"dim": [{"size": "4"}]}}}, "dtype": {"type": "DT_INT64"}}}, {"name": "13677", "op": "Const", "attr": {"value": {"tensor": {"dtype": "DT_FLOAT", "tensorShape": {"dim": [{"size": "3"}, {"size": "3"}, {"size": "128"}, {"size": "128"}]}}}, "dtype": {"type": "DT_FLOAT"}}}, {"name": "13679", "op": "Const", "attr": {"dtype": {"type": "DT_FLOAT"}, "value": {"tensor": {"dtype": "DT_FLOAT", "tensorShape": {"dim": [{"size": "128"}]}}}}}, {"name": "13681", "op": "Const", "attr": {"dtype": {"type": "DT_FLOAT"}, "value": {"tensor": {"dtype": "DT_FLOAT", "tensorShape": {"dim": [{"size": "3"}, {"size": "3"}, {"size": "128"}, {"size": "128"}]}}}}}, {"name": "13683", "op": "Const", "attr": {"value": {"tensor": {"dtype": "DT_FLOAT", "tensorShape": {"dim": [{"size": "128"}]}}}, "dtype": {"type": "DT_FLOAT"}}}, {"name": "PartitionedCall/model_4/tf.concat_6/concat/axis", "op": "Const", "attr": {"value": {"tensor": {"dtype": "DT_INT32", "tensorShape": {}}}, "dtype": {"type": "DT_INT32"}}}, {"name": "13689", "op": "Const", "attr": {"dtype": {"type": "DT_FLOAT"}, "value": {"tensor": {"dtype": "DT_FLOAT", "tensorShape": {"dim": [{"size": "1"}, {"size": "1"}, {"size": "384"}, {"size": "256"}]}}}}}, {"name": "13691", "op": "Const", "attr": {"dtype": {"type": "DT_FLOAT"}, "value": {"tensor": {"dtype": "DT_FLOAT", "tensorShape": {"dim": [{"size": "256"}]}}}}}, {"name": "PartitionedCall/model_4/tf.concat_9/concat/axis", "op": "Const", "attr": {"value": {"tensor": {"dtype": "DT_INT32", "tensorShape": {}}}, "dtype": {"type": "DT_INT32"}}}, {"name": "13723", "op": "Const", "attr": {"dtype": {"type": "DT_FLOAT"}, "value": {"tensor": {"dtype": "DT_FLOAT", "tensorShape": {"dim": [{"size": "1"}, {"size": "1"}, {"size": "384"}, {"size": "256"}]}}}}}, {"name": "13725", "op": "Const", "attr": {"dtype": {"type": "DT_FLOAT"}, "value": {"tensor": {"dtype": "DT_FLOAT", "tensorShape": {"dim": [{"size": "256"}]}}}}}, {"name": "13727", "op": "Const", "attr": {"value": {"tensor": {"dtype": "DT_INT64", "tensorShape": {"dim": [{"size": "4"}]}}}, "dtype": {"type": "DT_INT64"}}}, {"name": "13729", "op": "Const", "attr": {"dtype": {"type": "DT_INT64"}, "value": {"tensor": {"dtype": "DT_INT64", "tensorShape": {"dim": [{"size": "4"}]}}}}}, {"name": "PartitionedCall/model_4/tf.strided_slice_13/ones_like", "op": "Const", "attr": {"dtype": {"type": "DT_INT64"}, "value": {"tensor": {"dtype": "DT_INT64", "tensorShape": {"dim": [{"size": "4"}]}}}}}, {"name": "13731", "op": "Const", "attr": {"value": {"tensor": {"dtype": "DT_FLOAT", "tensorShape": {"dim": [{"size": "3"}, {"size": "3"}, {"size": "128"}, {"size": "128"}]}}}, "dtype": {"type": "DT_FLOAT"}}}, {"name": "13733", "op": "Const", "attr": {"value": {"tensor": {"dtype": "DT_FLOAT", "tensorShape": {"dim": [{"size": "128"}]}}}, "dtype": {"type": "DT_FLOAT"}}}, {"name": "13735", "op": "Const", "attr": {"value": {"tensor": {"dtype": "DT_FLOAT", "tensorShape": {"dim": [{"size": "3"}, {"size": "3"}, {"size": "128"}, {"size": "128"}]}}}, "dtype": {"type": "DT_FLOAT"}}}, {"name": "13737", "op": "Const", "attr": {"value": {"tensor": {"dtype": "DT_FLOAT", "tensorShape": {"dim": [{"size": "128"}]}}}, "dtype": {"type": "DT_FLOAT"}}}, {"name": "PartitionedCall/model_4/tf.concat_11/concat/axis", "op": "Const", "attr": {"dtype": {"type": "DT_INT32"}, "value": {"tensor": {"dtype": "DT_INT32", "tensorShape": {}}}}}, {"name": "13743", "op": "Const", "attr": {"value": {"tensor": {"dtype": "DT_FLOAT", "tensorShape": {"dim": [{"size": "1"}, {"size": "1"}, {"size": "384"}, {"size": "256"}]}}}, "dtype": {"type": "DT_FLOAT"}}}, {"name": "13745", "op": "Const", "attr": {"dtype": {"type": "DT_FLOAT"}, "value": {"tensor": {"dtype": "DT_FLOAT", "tensorShape": {"dim": [{"size": "256"}]}}}}}, {"name": "13747", "op": "Const", "attr": {"value": {"tensor": {"dtype": "DT_INT32", "tensorShape": {"dim": [{"size": "4"}, {"size": "2"}]}}}, "dtype": {"type": "DT_INT32"}}}, {"name": "13749", "op": "Const", "attr": {"value": {"tensor": {"dtype": "DT_FLOAT", "tensorShape": {"dim": [{"size": "3"}, {"size": "3"}, {"size": "256"}, {"size": "256"}]}}}, "dtype": {"type": "DT_FLOAT"}}}, {"name": "13751", "op": "Const", "attr": {"value": {"tensor": {"dtype": "DT_FLOAT", "tensorShape": {"dim": [{"size": "256"}]}}}, "dtype": {"type": "DT_FLOAT"}}}, {"name": "13653", "op": "Const", "attr": {"value": {"tensor": {"dtype": "DT_INT64", "tensorShape": {"dim": [{"size": "4"}]}}}, "dtype": {"type": "DT_INT64"}}}, {"name": "13655", "op": "Const", "attr": {"value": {"tensor": {"dtype": "DT_INT64", "tensorShape": {"dim": [{"size": "4"}]}}}, "dtype": {"type": "DT_INT64"}}}, {"name": "PartitionedCall/model_4/tf.strided_slice_6/ones_like", "op": "Const", "attr": {"dtype": {"type": "DT_INT64"}, "value": {"tensor": {"dtype": "DT_INT64", "tensorShape": {"dim": [{"size": "4"}]}}}}}, {"name": "13623", "op": "Const", "attr": {"dtype": {"type": "DT_INT64"}, "value": {"tensor": {"dtype": "DT_INT64", "tensorShape": {"dim": [{"size": "4"}]}}}}}, {"name": "13625", "op": "Const", "attr": {"dtype": {"type": "DT_INT64"}, "value": {"tensor": {"dtype": "DT_INT64", "tensorShape": {"dim": [{"size": "4"}]}}}}}, {"name": "PartitionedCall/model_4/tf.strided_slice_4/ones_like", "op": "Const", "attr": {"value": {"tensor": {"dtype": "DT_INT64", "tensorShape": {"dim": [{"size": "4"}]}}}, "dtype": {"type": "DT_INT64"}}}, {"name": "13585", "op": "Const", "attr": {"dtype": {"type": "DT_INT64"}, "value": {"tensor": {"dtype": "DT_INT64", "tensorShape": {"dim": [{"size": "4"}]}}}}}, {"name": "13587", "op": "Const", "attr": {"dtype": {"type": "DT_INT64"}, "value": {"tensor": {"dtype": "DT_INT64", "tensorShape": {"dim": [{"size": "4"}]}}}}}, {"name": "PartitionedCall/model_4/tf.strided_slice_2/ones_like", "op": "Const", "attr": {"value": {"tensor": {"dtype": "DT_INT64", "tensorShape": {"dim": [{"size": "4"}]}}}, "dtype": {"type": "DT_INT64"}}}, {"name": "13547", "op": "Const", "attr": {"value": {"tensor": {"dtype": "DT_INT64", "tensorShape": {"dim": [{"size": "4"}]}}}, "dtype": {"type": "DT_INT64"}}}, {"name": "13549", "op": "Const", "attr": {"dtype": {"type": "DT_INT64"}, "value": {"tensor": {"dtype": "DT_INT64", "tensorShape": {"dim": [{"size": "4"}]}}}}}, {"name": "PartitionedCall/model_4/tf.strided_slice/ones_like", "op": "Const", "attr": {"dtype": {"type": "DT_INT64"}, "value": {"tensor": {"dtype": "DT_INT64", "tensorShape": {"dim": [{"size": "4"}]}}}}}, {"name": "13519", "op": "Const", "attr": {"value": {"tensor": {"dtype": "DT_INT32", "tensorShape": {"dim": [{"size": "4"}, {"size": "2"}]}}}, "dtype": {"type": "DT_INT32"}}}, {"name": "13521", "op": "Const", "attr": {"value": {"tensor": {"dtype": "DT_FLOAT", "tensorShape": {"dim": [{"size": "3"}, {"size": "3"}, {"size": "3"}, {"size": "32"}]}}}, "dtype": {"type": "DT_FLOAT"}}}, {"name": "13523", "op": "Const", "attr": {"dtype": {"type": "DT_FLOAT"}, "value": {"tensor": {"dtype": "DT_FLOAT", "tensorShape": {"dim": [{"size": "32"}]}}}}}, {"name": "13525", "op": "Const", "attr": {"value": {"tensor": {"dtype": "DT_INT32", "tensorShape": {"dim": [{"size": "4"}, {"size": "2"}]}}}, "dtype": {"type": "DT_INT32"}}}, {"name": "13527", "op": "Const", "attr": {"value": {"tensor": {"dtype": "DT_FLOAT", "tensorShape": {"dim": [{"size": "3"}, {"size": "3"}, {"size": "32"}, {"size": "64"}]}}}, "dtype": {"type": "DT_FLOAT"}}}, {"name": "13529", "op": "Const", "attr": {"value": {"tensor": {"dtype": "DT_FLOAT", "tensorShape": {"dim": [{"size": "64"}]}}}, "dtype": {"type": "DT_FLOAT"}}}, {"name": "13531", "op": "Const", "attr": {"value": {"tensor": {"dtype": "DT_FLOAT", "tensorShape": {"dim": [{"size": "1"}, {"size": "1"}, {"size": "64"}, {"size": "64"}]}}}, "dtype": {"type": "DT_FLOAT"}}}, {"name": "13533", "op": "Const", "attr": {"value": {"tensor": {"dtype": "DT_FLOAT", "tensorShape": {"dim": [{"size": "64"}]}}}, "dtype": {"type": "DT_FLOAT"}}}, {"name": "13535", "op": "Const", "attr": {"value": {"tensor": {"dtype": "DT_INT64", "tensorShape": {"dim": [{"size": "4"}]}}}, "dtype": {"type": "DT_INT64"}}}, {"name": "13537", "op": "Const", "attr": {"value": {"tensor": {"dtype": "DT_INT64", "tensorShape": {"dim": [{"size": "4"}]}}}, "dtype": {"type": "DT_INT64"}}}, {"name": "PartitionedCall/model_4/tf.strided_slice_1/ones_like", "op": "Const", "attr": {"value": {"tensor": {"dtype": "DT_INT64", "tensorShape": {"dim": [{"size": "4"}]}}}, "dtype": {"type": "DT_INT64"}}}, {"name": "13539", "op": "Const", "attr": {"dtype": {"type": "DT_FLOAT"}, "value": {"tensor": {"dtype": "DT_FLOAT", "tensorShape": {"dim": [{"size": "3"}, {"size": "3"}, {"size": "32"}, {"size": "32"}]}}}}}, {"name": "13541", "op": "Const", "attr": {"value": {"tensor": {"dtype": "DT_FLOAT", "tensorShape": {"dim": [{"size": "32"}]}}}, "dtype": {"type": "DT_FLOAT"}}}, {"name": "13543", "op": "Const", "attr": {"value": {"tensor": {"dtype": "DT_FLOAT", "tensorShape": {"dim": [{"size": "3"}, {"size": "3"}, {"size": "32"}, {"size": "32"}]}}}, "dtype": {"type": "DT_FLOAT"}}}, {"name": "13545", "op": "Const", "attr": {"value": {"tensor": {"dtype": "DT_FLOAT", "tensorShape": {"dim": [{"size": "32"}]}}}, "dtype": {"type": "DT_FLOAT"}}}, {"name": "PartitionedCall/model_4/tf.concat/concat/axis", "op": "Const", "attr": {"value": {"tensor": {"dtype": "DT_INT32", "tensorShape": {}}}, "dtype": {"type": "DT_INT32"}}}, {"name": "13551", "op": "Const", "attr": {"value": {"tensor": {"dtype": "DT_FLOAT", "tensorShape": {"dim": [{"size": "1"}, {"size": "1"}, {"size": "96"}, {"size": "64"}]}}}, "dtype": {"type": "DT_FLOAT"}}}, {"name": "13553", "op": "Const", "attr": {"dtype": {"type": "DT_FLOAT"}, "value": {"tensor": {"dtype": "DT_FLOAT", "tensorShape": {"dim": [{"size": "64"}]}}}}}, {"name": "13555", "op": "Const", "attr": {"value": {"tensor": {"dtype": "DT_INT32", "tensorShape": {"dim": [{"size": "4"}, {"size": "2"}]}}}, "dtype": {"type": "DT_INT32"}}}, {"name": "13557", "op": "Const", "attr": {"value": {"tensor": {"dtype": "DT_FLOAT", "tensorShape": {"dim": [{"size": "3"}, {"size": "3"}, {"size": "64"}, {"size": "128"}]}}}, "dtype": {"type": "DT_FLOAT"}}}, {"name": "13559", "op": "Const", "attr": {"value": {"tensor": {"dtype": "DT_FLOAT", "tensorShape": {"dim": [{"size": "128"}]}}}, "dtype": {"type": "DT_FLOAT"}}}, {"name": "13561", "op": "Const", "attr": {"dtype": {"type": "DT_FLOAT"}, "value": {"tensor": {"dtype": "DT_FLOAT", "tensorShape": {"dim": [{"size": "1"}, {"size": "1"}, {"size": "128"}, {"size": "128"}]}}}}}, {"name": "13563", "op": "Const", "attr": {"dtype": {"type": "DT_FLOAT"}, "value": {"tensor": {"dtype": "DT_FLOAT", "tensorShape": {"dim": [{"size": "128"}]}}}}}, {"name": "13565", "op": "Const", "attr": {"dtype": {"type": "DT_INT64"}, "value": {"tensor": {"dtype": "DT_INT64", "tensorShape": {"dim": [{"size": "4"}]}}}}}, {"name": "13567", "op": "Const", "attr": {"value": {"tensor": {"dtype": "DT_INT64", "tensorShape": {"dim": [{"size": "4"}]}}}, "dtype": {"type": "DT_INT64"}}}, {"name": "PartitionedCall/model_4/tf.strided_slice_3/ones_like", "op": "Const", "attr": {"dtype": {"type": "DT_INT64"}, "value": {"tensor": {"dtype": "DT_INT64", "tensorShape": {"dim": [{"size": "4"}]}}}}}, {"name": "13569", "op": "Const", "attr": {"value": {"tensor": {"dtype": "DT_FLOAT", "tensorShape": {"dim": [{"size": "3"}, {"size": "3"}, {"size": "64"}, {"size": "64"}]}}}, "dtype": {"type": "DT_FLOAT"}}}, {"name": "13571", "op": "Const", "attr": {"value": {"tensor": {"dtype": "DT_FLOAT", "tensorShape": {"dim": [{"size": "64"}]}}}, "dtype": {"type": "DT_FLOAT"}}}, {"name": "13573", "op": "Const", "attr": {"value": {"tensor": {"dtype": "DT_FLOAT", "tensorShape": {"dim": [{"size": "3"}, {"size": "3"}, {"size": "64"}, {"size": "64"}]}}}, "dtype": {"type": "DT_FLOAT"}}}, {"name": "13575", "op": "Const", "attr": {"value": {"tensor": {"dtype": "DT_FLOAT", "tensorShape": {"dim": [{"size": "64"}]}}}, "dtype": {"type": "DT_FLOAT"}}}, {"name": "13577", "op": "Const", "attr": {"value": {"tensor": {"dtype": "DT_FLOAT", "tensorShape": {"dim": [{"size": "3"}, {"size": "3"}, {"size": "64"}, {"size": "64"}]}}}, "dtype": {"type": "DT_FLOAT"}}}, {"name": "13579", "op": "Const", "attr": {"value": {"tensor": {"dtype": "DT_FLOAT", "tensorShape": {"dim": [{"size": "64"}]}}}, "dtype": {"type": "DT_FLOAT"}}}, {"name": "13581", "op": "Const", "attr": {"value": {"tensor": {"dtype": "DT_FLOAT", "tensorShape": {"dim": [{"size": "3"}, {"size": "3"}, {"size": "64"}, {"size": "64"}]}}}, "dtype": {"type": "DT_FLOAT"}}}, {"name": "13583", "op": "Const", "attr": {"value": {"tensor": {"dtype": "DT_FLOAT", "tensorShape": {"dim": [{"size": "64"}]}}}, "dtype": {"type": "DT_FLOAT"}}}, {"name": "PartitionedCall/model_4/tf.concat_1/concat/axis", "op": "Const", "attr": {"value": {"tensor": {"dtype": "DT_INT32", "tensorShape": {}}}, "dtype": {"type": "DT_INT32"}}}, {"name": "13589", "op": "Const", "attr": {"dtype": {"type": "DT_FLOAT"}, "value": {"tensor": {"dtype": "DT_FLOAT", "tensorShape": {"dim": [{"size": "1"}, {"size": "1"}, {"size": "256"}, {"size": "128"}]}}}}}, {"name": "13591", "op": "Const", "attr": {"value": {"tensor": {"dtype": "DT_FLOAT", "tensorShape": {"dim": [{"size": "128"}]}}}, "dtype": {"type": "DT_FLOAT"}}}, {"name": "13593", "op": "Const", "attr": {"value": {"tensor": {"dtype": "DT_INT32", "tensorShape": {"dim": [{"size": "4"}, {"size": "2"}]}}}, "dtype": {"type": "DT_INT32"}}}, {"name": "13595", "op": "Const", "attr": {"dtype": {"type": "DT_FLOAT"}, "value": {"tensor": {"dtype": "DT_FLOAT", "tensorShape": {"dim": [{"size": "3"}, {"size": "3"}, {"size": "128"}, {"size": "256"}]}}}}}, {"name": "13597", "op": "Const", "attr": {"value": {"tensor": {"dtype": "DT_FLOAT", "tensorShape": {"dim": [{"size": "256"}]}}}, "dtype": {"type": "DT_FLOAT"}}}, {"name": "13599", "op": "Const", "attr": {"dtype": {"type": "DT_FLOAT"}, "value": {"tensor": {"dtype": "DT_FLOAT", "tensorShape": {"dim": [{"size": "1"}, {"size": "1"}, {"size": "256"}, {"size": "256"}]}}}}}, {"name": "13601", "op": "Const", "attr": {"value": {"tensor": {"dtype": "DT_FLOAT", "tensorShape": {"dim": [{"size": "256"}]}}}, "dtype": {"type": "DT_FLOAT"}}}, {"name": "13603", "op": "Const", "attr": {"dtype": {"type": "DT_INT64"}, "value": {"tensor": {"dtype": "DT_INT64", "tensorShape": {"dim": [{"size": "4"}]}}}}}, {"name": "13605", "op": "Const", "attr": {"dtype": {"type": "DT_INT64"}, "value": {"tensor": {"dtype": "DT_INT64", "tensorShape": {"dim": [{"size": "4"}]}}}}}, {"name": "PartitionedCall/model_4/tf.strided_slice_5/ones_like", "op": "Const", "attr": {"dtype": {"type": "DT_INT64"}, "value": {"tensor": {"dtype": "DT_INT64", "tensorShape": {"dim": [{"size": "4"}]}}}}}, {"name": "13607", "op": "Const", "attr": {"dtype": {"type": "DT_FLOAT"}, "value": {"tensor": {"dtype": "DT_FLOAT", "tensorShape": {"dim": [{"size": "3"}, {"size": "3"}, {"size": "128"}, {"size": "128"}]}}}}}, {"name": "13609", "op": "Const", "attr": {"value": {"tensor": {"dtype": "DT_FLOAT", "tensorShape": {"dim": [{"size": "128"}]}}}, "dtype": {"type": "DT_FLOAT"}}}, {"name": "13611", "op": "Const", "attr": {"dtype": {"type": "DT_FLOAT"}, "value": {"tensor": {"dtype": "DT_FLOAT", "tensorShape": {"dim": [{"size": "3"}, {"size": "3"}, {"size": "128"}, {"size": "128"}]}}}}}, {"name": "13613", "op": "Const", "attr": {"value": {"tensor": {"dtype": "DT_FLOAT", "tensorShape": {"dim": [{"size": "128"}]}}}, "dtype": {"type": "DT_FLOAT"}}}, {"name": "13615", "op": "Const", "attr": {"dtype": {"type": "DT_FLOAT"}, "value": {"tensor": {"dtype": "DT_FLOAT", "tensorShape": {"dim": [{"size": "3"}, {"size": "3"}, {"size": "128"}, {"size": "128"}]}}}}}, {"name": "13617", "op": "Const", "attr": {"dtype": {"type": "DT_FLOAT"}, "value": {"tensor": {"dtype": "DT_FLOAT", "tensorShape": {"dim": [{"size": "128"}]}}}}}, {"name": "13619", "op": "Const", "attr": {"value": {"tensor": {"dtype": "DT_FLOAT", "tensorShape": {"dim": [{"size": "3"}, {"size": "3"}, {"size": "128"}, {"size": "128"}]}}}, "dtype": {"type": "DT_FLOAT"}}}, {"name": "13621", "op": "Const", "attr": {"value": {"tensor": {"dtype": "DT_FLOAT", "tensorShape": {"dim": [{"size": "128"}]}}}, "dtype": {"type": "DT_FLOAT"}}}, {"name": "PartitionedCall/model_4/tf.concat_2/concat/axis", "op": "Const", "attr": {"value": {"tensor": {"dtype": "DT_INT32", "tensorShape": {}}}, "dtype": {"type": "DT_INT32"}}}, {"name": "13627", "op": "Const", "attr": {"value": {"tensor": {"dtype": "DT_FLOAT", "tensorShape": {"dim": [{"size": "1"}, {"size": "1"}, {"size": "512"}, {"size": "256"}]}}}, "dtype": {"type": "DT_FLOAT"}}}, {"name": "13629", "op": "Const", "attr": {"value": {"tensor": {"dtype": "DT_FLOAT", "tensorShape": {"dim": [{"size": "256"}]}}}, "dtype": {"type": "DT_FLOAT"}}}, {"name": "13631", "op": "Const", "attr": {"dtype": {"type": "DT_INT32"}, "value": {"tensor": {"dtype": "DT_INT32", "tensorShape": {"dim": [{"size": "4"}, {"size": "2"}]}}}}}, {"name": "13633", "op": "Const", "attr": {"value": {"tensor": {"dtype": "DT_FLOAT", "tensorShape": {"dim": [{"size": "3"}, {"size": "3"}, {"size": "256"}, {"size": "512"}]}}}, "dtype": {"type": "DT_FLOAT"}}}, {"name": "13635", "op": "Const", "attr": {"value": {"tensor": {"dtype": "DT_FLOAT", "tensorShape": {"dim": [{"size": "512"}]}}}, "dtype": {"type": "DT_FLOAT"}}}, {"name": "13637", "op": "Const", "attr": {"value": {"tensor": {"dtype": "DT_FLOAT", "tensorShape": {"dim": [{"size": "1"}, {"size": "1"}, {"size": "512"}, {"size": "512"}]}}}, "dtype": {"type": "DT_FLOAT"}}}, {"name": "13639", "op": "Const", "attr": {"value": {"tensor": {"dtype": "DT_FLOAT", "tensorShape": {"dim": [{"size": "512"}]}}}, "dtype": {"type": "DT_FLOAT"}}}, {"name": "13641", "op": "Const", "attr": {"value": {"tensor": {"dtype": "DT_INT64", "tensorShape": {"dim": [{"size": "4"}]}}}, "dtype": {"type": "DT_INT64"}}}, {"name": "13643", "op": "Const", "attr": {"value": {"tensor": {"dtype": "DT_INT64", "tensorShape": {"dim": [{"size": "4"}]}}}, "dtype": {"type": "DT_INT64"}}}, {"name": "PartitionedCall/model_4/tf.strided_slice_7/ones_like", "op": "Const", "attr": {"value": {"tensor": {"dtype": "DT_INT64", "tensorShape": {"dim": [{"size": "4"}]}}}, "dtype": {"type": "DT_INT64"}}}, {"name": "13645", "op": "Const", "attr": {"value": {"tensor": {"dtype": "DT_FLOAT", "tensorShape": {"dim": [{"size": "3"}, {"size": "3"}, {"size": "256"}, {"size": "256"}]}}}, "dtype": {"type": "DT_FLOAT"}}}, {"name": "13647", "op": "Const", "attr": {"value": {"tensor": {"dtype": "DT_FLOAT", "tensorShape": {"dim": [{"size": "256"}]}}}, "dtype": {"type": "DT_FLOAT"}}}, {"name": "13649", "op": "Const", "attr": {"value": {"tensor": {"dtype": "DT_FLOAT", "tensorShape": {"dim": [{"size": "3"}, {"size": "3"}, {"size": "256"}, {"size": "256"}]}}}, "dtype": {"type": "DT_FLOAT"}}}, {"name": "13651", "op": "Const", "attr": {"dtype": {"type": "DT_FLOAT"}, "value": {"tensor": {"dtype": "DT_FLOAT", "tensorShape": {"dim": [{"size": "256"}]}}}}}, {"name": "PartitionedCall/model_4/tf.concat_3/concat/axis", "op": "Const", "attr": {"value": {"tensor": {"dtype": "DT_INT32", "tensorShape": {}}}, "dtype": {"type": "DT_INT32"}}}, {"name": "13657", "op": "Const", "attr": {"value": {"tensor": {"dtype": "DT_FLOAT", "tensorShape": {"dim": [{"size": "1"}, {"size": "1"}, {"size": "768"}, {"size": "512"}]}}}, "dtype": {"type": "DT_FLOAT"}}}, {"name": "13659", "op": "Const", "attr": {"dtype": {"type": "DT_FLOAT"}, "value": {"tensor": {"dtype": "DT_FLOAT", "tensorShape": {"dim": [{"size": "512"}]}}}}}, {"name": "13661", "op": "Const", "attr": {"value": {"tensor": {"dtype": "DT_FLOAT", "tensorShape": {"dim": [{"size": "1"}, {"size": "1"}, {"size": "512"}, {"size": "256"}]}}}, "dtype": {"type": "DT_FLOAT"}}}, {"name": "13663", "op": "Const", "attr": {"value": {"tensor": {"dtype": "DT_FLOAT", "tensorShape": {"dim": [{"size": "256"}]}}}, "dtype": {"type": "DT_FLOAT"}}}, {"name": "PartitionedCall/model_4/tf.concat_4/concat/axis", "op": "Const", "attr": {"value": {"tensor": {"dtype": "DT_INT32", "tensorShape": {}}}, "dtype": {"type": "DT_INT32"}}}, {"name": "13665", "op": "Const", "attr": {"value": {"tensor": {"dtype": "DT_FLOAT", "tensorShape": {"dim": [{"size": "1"}, {"size": "1"}, {"size": "1024"}, {"size": "512"}]}}}, "dtype": {"type": "DT_FLOAT"}}}, {"name": "13667", "op": "Const", "attr": {"dtype": {"type": "DT_FLOAT"}, "value": {"tensor": {"dtype": "DT_FLOAT", "tensorShape": {"dim": [{"size": "512"}]}}}}}, {"name": "PartitionedCall/model_4/tf.concat_12/concat/axis", "op": "Const", "attr": {"value": {"tensor": {"dtype": "DT_INT32", "tensorShape": {}}}, "dtype": {"type": "DT_INT32"}}}, {"name": "13753", "op": "Const", "attr": {"value": {"tensor": {"dtype": "DT_FLOAT", "tensorShape": {"dim": [{"size": "1"}, {"size": "1"}, {"size": "768"}, {"size": "512"}]}}}, "dtype": {"type": "DT_FLOAT"}}}, {"name": "13755", "op": "Const", "attr": {"dtype": {"type": "DT_FLOAT"}, "value": {"tensor": {"dtype": "DT_FLOAT", "tensorShape": {"dim": [{"size": "512"}]}}}}}, {"name": "13757", "op": "Const", "attr": {"value": {"tensor": {"dtype": "DT_INT64", "tensorShape": {"dim": [{"size": "4"}]}}}, "dtype": {"type": "DT_INT64"}}}, {"name": "13759", "op": "Const", "attr": {"dtype": {"type": "DT_INT64"}, "value": {"tensor": {"dtype": "DT_INT64", "tensorShape": {"dim": [{"size": "4"}]}}}}}, {"name": "PartitionedCall/model_4/tf.strided_slice_15/ones_like", "op": "Const", "attr": {"value": {"tensor": {"dtype": "DT_INT64", "tensorShape": {"dim": [{"size": "4"}]}}}, "dtype": {"type": "DT_INT64"}}}, {"name": "13761", "op": "Const", "attr": {"value": {"tensor": {"dtype": "DT_FLOAT", "tensorShape": {"dim": [{"size": "3"}, {"size": "3"}, {"size": "256"}, {"size": "256"}]}}}, "dtype": {"type": "DT_FLOAT"}}}, {"name": "13763", "op": "Const", "attr": {"dtype": {"type": "DT_FLOAT"}, "value": {"tensor": {"dtype": "DT_FLOAT", "tensorShape": {"dim": [{"size": "256"}]}}}}}, {"name": "13765", "op": "Const", "attr": {"value": {"tensor": {"dtype": "DT_FLOAT", "tensorShape": {"dim": [{"size": "3"}, {"size": "3"}, {"size": "256"}, {"size": "256"}]}}}, "dtype": {"type": "DT_FLOAT"}}}, {"name": "13767", "op": "Const", "attr": {"dtype": {"type": "DT_FLOAT"}, "value": {"tensor": {"dtype": "DT_FLOAT", "tensorShape": {"dim": [{"size": "256"}]}}}}}, {"name": "PartitionedCall/model_4/tf.concat_14/concat/axis", "op": "Const", "attr": {"value": {"tensor": {"dtype": "DT_INT32", "tensorShape": {}}}, "dtype": {"type": "DT_INT32"}}}, {"name": "13773", "op": "Const", "attr": {"value": {"tensor": {"dtype": "DT_FLOAT", "tensorShape": {"dim": [{"size": "1"}, {"size": "1"}, {"size": "768"}, {"size": "512"}]}}}, "dtype": {"type": "DT_FLOAT"}}}, {"name": "13775", "op": "Const", "attr": {"value": {"tensor": {"dtype": "DT_FLOAT", "tensorShape": {"dim": [{"size": "512"}]}}}, "dtype": {"type": "DT_FLOAT"}}}, {"name": "13777", "op": "Const", "attr": {"dtype": {"type": "DT_FLOAT"}, "value": {"tensor": {"dtype": "DT_FLOAT", "tensorShape": {"dim": [{"size": "3"}, {"size": "3"}, {"size": "512"}, {"size": "128"}]}}}}}, {"name": "13789", "op": "Const", "attr": {"dtype": {"type": "DT_FLOAT"}, "value": {"tensor": {"dtype": "DT_FLOAT", "tensorShape": {"dim": [{"size": "128"}]}}}}}, {"name": "13801", "op": "Const", "attr": {"dtype": {"type": "DT_FLOAT"}, "value": {"tensor": {"dtype": "DT_FLOAT", "tensorShape": {"dim": [{"size": "3"}, {"size": "3"}, {"size": "128"}, {"size": "128"}]}}}}}, {"name": "13813", "op": "Const", "attr": {"dtype": {"type": "DT_FLOAT"}, "value": {"tensor": {"dtype": "DT_FLOAT", "tensorShape": {"dim": [{"size": "128"}]}}}}}, {"name": "13825", "op": "Const", "attr": {"value": {"tensor": {"dtype": "DT_FLOAT", "tensorShape": {"dim": [{"size": "1"}, {"size": "1"}, {"size": "128"}, {"size": "8"}]}}}, "dtype": {"type": "DT_FLOAT"}}}, {"name": "13839", "op": "Const", "attr": {"value": {"tensor": {"dtype": "DT_FLOAT", "tensorShape": {"dim": [{"size": "8"}]}}}, "dtype": {"type": "DT_FLOAT"}}}, {"name": "PartitionedCall/model_4/tf.concat_15/concat/axis", "op": "Const", "attr": {"value": {"tensor": {"dtype": "DT_INT32", "tensorShape": {}}}, "dtype": {"type": "DT_INT32"}}}, {"name": "PartitionedCall/model_4/tf.compat.v1.transpose_2/transpose/perm", "op": "Const", "attr": {"value": {"tensor": {"dtype": "DT_INT32", "tensorShape": {"dim": [{"size": "4"}]}}}, "dtype": {"type": "DT_INT32"}}}, {"name": "PartitionedCall/model_4/tf.reshape_2/Reshape/shape", "op": "Const", "attr": {"dtype": {"type": "DT_INT32"}, "value": {"tensor": {"dtype": "DT_INT32", "tensorShape": {"dim": [{"size": "3"}]}}}}}, {"name": "PartitionedCall/model_4/tf.concat_16/concat/axis", "op": "Const", "attr": {"value": {"tensor": {"dtype": "DT_INT32", "tensorShape": {}}}, "dtype": {"type": "DT_INT32"}}}, {"name": "13869", "op": "Const", "attr": {"value": {"tensor": {"dtype": "DT_INT64", "tensorShape": {"dim": [{"size": "3"}]}}}, "dtype": {"type": "DT_INT64"}}}, {"name": "13871", "op": "Const", "attr": {"dtype": {"type": "DT_INT64"}, "value": {"tensor": {"dtype": "DT_INT64", "tensorShape": {"dim": [{"size": "3"}]}}}}}, {"name": "PartitionedCall/model_4/tf.strided_slice_17/StridedSlice/strides", "op": "Const", "attr": {"value": {"tensor": {"dtype": "DT_INT64", "tensorShape": {"dim": [{"size": "3"}]}}}, "dtype": {"type": "DT_INT64"}}}, {"name": "PartitionedCall/model_4/output0/concat/axis", "op": "Const", "attr": {"dtype": {"type": "DT_INT32"}, "value": {"tensor": {"dtype": "DT_INT32", "tensorShape": {}}}}}, {"name": "x", "op": "Placeholder", "attr": {"shape": {"shape": {"dim": [{"size": "1"}, {"size": "640"}, {"size": "640"}, {"size": "3"}]}}, "dtype": {"type": "DT_FLOAT"}}}, {"name": "PartitionedCall/model_4/tf.compat.v1.pad/Pad", "op": "Pad", "input": ["x", "13519"], "attr": {"T": {"type": "DT_FLOAT"}, "Tpaddings": {"type": "DT_INT32"}}}, {"name": "PartitionedCall/model_4/tf.nn.convolution/convolution", "op": "Conv2D", "input": ["PartitionedCall/model_4/tf.compat.v1.pad/Pad", "13521"], "device": "/device:CPU:0", "attr": {"strides": {"list": {"i": ["1", "2", "2", "1"]}}, "T": {"type": "DT_FLOAT"}, "dilations": {"list": {"i": ["1", "1", "1", "1"]}}, "data_format": {"s": "TkhXQw=="}, "explicit_paddings": {"list": {}}, "use_cudnn_on_gpu": {"b": true}, "padding": {"s": "VkFMSUQ="}}}, {"name": "PartitionedCall/model_4/tf.math.add/Add", "op": "AddV2", "input": ["PartitionedCall/model_4/tf.nn.convolution/convolution", "13523"], "attr": {"T": {"type": "DT_FLOAT"}}}, {"name": "PartitionedCall/model_4/tf.math.sigmoid/Sigmoid", "op": "Sigmoid", "input": ["PartitionedCall/model_4/tf.math.add/Add"], "attr": {"T": {"type": "DT_FLOAT"}}}, {"name": "PartitionedCall/model_4/tf.math.multiply_3/Mul", "op": "Mul", "input": ["PartitionedCall/model_4/tf.math.add/Add", "PartitionedCall/model_4/tf.math.sigmoid/Sigmoid"], "attr": {"T": {"type": "DT_FLOAT"}}}, {"name": "PartitionedCall/model_4/tf.compat.v1.pad_1/Pad", "op": "Pad", "input": ["PartitionedCall/model_4/tf.math.multiply_3/Mul", "13525"], "attr": {"Tpaddings": {"type": "DT_INT32"}, "T": {"type": "DT_FLOAT"}}}, {"name": "PartitionedCall/model_4/tf.nn.convolution_1/convolution", "op": "Conv2D", "input": ["PartitionedCall/model_4/tf.compat.v1.pad_1/Pad", "13527"], "device": "/device:CPU:0", "attr": {"dilations": {"list": {"i": ["1", "1", "1", "1"]}}, "use_cudnn_on_gpu": {"b": true}, "strides": {"list": {"i": ["1", "2", "2", "1"]}}, "data_format": {"s": "TkhXQw=="}, "padding": {"s": "VkFMSUQ="}, "T": {"type": "DT_FLOAT"}, "explicit_paddings": {"list": {}}}}, {"name": "PartitionedCall/model_4/tf.math.add_1/Add", "op": "AddV2", "input": ["PartitionedCall/model_4/tf.nn.convolution_1/convolution", "13529"], "attr": {"T": {"type": "DT_FLOAT"}}}, {"name": "PartitionedCall/model_4/tf.math.sigmoid_1/Sigmoid", "op": "Sigmoid", "input": ["PartitionedCall/model_4/tf.math.add_1/Add"], "attr": {"T": {"type": "DT_FLOAT"}}}, {"name": "PartitionedCall/model_4/tf.math.multiply_7/Mul", "op": "Mul", "input": ["PartitionedCall/model_4/tf.math.add_1/Add", "PartitionedCall/model_4/tf.math.sigmoid_1/Sigmoid"], "attr": {"T": {"type": "DT_FLOAT"}}}, {"name": "PartitionedCall/model_4/tf.nn.convolution_2/convolution", "op": "Conv2D", "input": ["PartitionedCall/model_4/tf.math.multiply_7/Mul", "13531"], "device": "/device:CPU:0", "attr": {"use_cudnn_on_gpu": {"b": true}, "data_format": {"s": "TkhXQw=="}, "padding": {"s": "U0FNRQ=="}, "strides": {"list": {"i": ["1", "1", "1", "1"]}}, "T": {"type": "DT_FLOAT"}, "explicit_paddings": {"list": {}}, "dilations": {"list": {"i": ["1", "1", "1", "1"]}}}}, {"name": "PartitionedCall/model_4/tf.math.add_2/Add", "op": "AddV2", "input": ["PartitionedCall/model_4/tf.nn.convolution_2/convolution", "13533"], "attr": {"T": {"type": "DT_FLOAT"}}}, {"name": "PartitionedCall/model_4/tf.math.sigmoid_2/Sigmoid", "op": "Sigmoid", "input": ["PartitionedCall/model_4/tf.math.add_2/Add"], "attr": {"T": {"type": "DT_FLOAT"}}}, {"name": "PartitionedCall/model_4/tf.math.multiply_11/Mul", "op": "Mul", "input": ["PartitionedCall/model_4/tf.math.add_2/Add", "PartitionedCall/model_4/tf.math.sigmoid_2/Sigmoid"], "attr": {"T": {"type": "DT_FLOAT"}}}, {"name": "PartitionedCall/model_4/tf.strided_slice/StridedSlice", "op": "StridedSlice", "input": ["PartitionedCall/model_4/tf.math.multiply_11/Mul", "13547", "13549", "PartitionedCall/model_4/tf.strided_slice/ones_like"], "attr": {"Index": {"type": "DT_INT64"}, "ellipsis_mask": {"i": "0"}, "begin_mask": {"i": "15"}, "end_mask": {"i": "7"}, "shrink_axis_mask": {"i": "0"}, "T": {"type": "DT_FLOAT"}, "new_axis_mask": {"i": "0"}}}, {"name": "PartitionedCall/model_4/tf.strided_slice_1/StridedSlice", "op": "StridedSlice", "input": ["PartitionedCall/model_4/tf.math.multiply_11/Mul", "13535", "13537", "PartitionedCall/model_4/tf.strided_slice_1/ones_like"], "attr": {"Index": {"type": "DT_INT64"}, "new_axis_mask": {"i": "0"}, "shrink_axis_mask": {"i": "0"}, "begin_mask": {"i": "7"}, "ellipsis_mask": {"i": "0"}, "end_mask": {"i": "7"}, "T": {"type": "DT_FLOAT"}}}, {"name": "PartitionedCall/model_4/tf.nn.convolution_3/convolution", "op": "Conv2D", "input": ["PartitionedCall/model_4/tf.strided_slice_1/StridedSlice", "13539"], "device": "/device:CPU:0", "attr": {"dilations": {"list": {"i": ["1", "1", "1", "1"]}}, "explicit_paddings": {"list": {}}, "T": {"type": "DT_FLOAT"}, "strides": {"list": {"i": ["1", "1", "1", "1"]}}, "data_format": {"s": "TkhXQw=="}, "use_cudnn_on_gpu": {"b": true}, "padding": {"s": "U0FNRQ=="}}}, {"name": "PartitionedCall/model_4/tf.math.add_3/Add", "op": "AddV2", "input": ["PartitionedCall/model_4/tf.nn.convolution_3/convolution", "13541"], "attr": {"T": {"type": "DT_FLOAT"}}}, {"name": "PartitionedCall/model_4/tf.math.sigmoid_3/Sigmoid", "op": "Sigmoid", "input": ["PartitionedCall/model_4/tf.math.add_3/Add"], "attr": {"T": {"type": "DT_FLOAT"}}}, {"name": "PartitionedCall/model_4/tf.math.multiply_15/Mul", "op": "Mul", "input": ["PartitionedCall/model_4/tf.math.add_3/Add", "PartitionedCall/model_4/tf.math.sigmoid_3/Sigmoid"], "attr": {"T": {"type": "DT_FLOAT"}}}, {"name": "PartitionedCall/model_4/tf.nn.convolution_4/convolution", "op": "Conv2D", "input": ["PartitionedCall/model_4/tf.math.multiply_15/Mul", "13543"], "device": "/device:CPU:0", "attr": {"use_cudnn_on_gpu": {"b": true}, "explicit_paddings": {"list": {}}, "dilations": {"list": {"i": ["1", "1", "1", "1"]}}, "strides": {"list": {"i": ["1", "1", "1", "1"]}}, "T": {"type": "DT_FLOAT"}, "padding": {"s": "U0FNRQ=="}, "data_format": {"s": "TkhXQw=="}}}, {"name": "PartitionedCall/model_4/tf.math.add_4/Add", "op": "AddV2", "input": ["PartitionedCall/model_4/tf.nn.convolution_4/convolution", "13545"], "attr": {"T": {"type": "DT_FLOAT"}}}, {"name": "PartitionedCall/model_4/tf.math.sigmoid_4/Sigmoid", "op": "Sigmoid", "input": ["PartitionedCall/model_4/tf.math.add_4/Add"], "attr": {"T": {"type": "DT_FLOAT"}}}, {"name": "PartitionedCall/model_4/tf.math.multiply_19/Mul", "op": "Mul", "input": ["PartitionedCall/model_4/tf.math.add_4/Add", "PartitionedCall/model_4/tf.math.sigmoid_4/Sigmoid"], "attr": {"T": {"type": "DT_FLOAT"}}}, {"name": "PartitionedCall/model_4/tf.math.add_6/Add", "op": "AddV2", "input": ["PartitionedCall/model_4/tf.strided_slice_1/StridedSlice", "PartitionedCall/model_4/tf.math.multiply_19/Mul"], "attr": {"T": {"type": "DT_FLOAT"}}}, {"name": "PartitionedCall/model_4/tf.concat/concat", "op": "ConcatV2", "input": ["PartitionedCall/model_4/tf.strided_slice/StridedSlice", "PartitionedCall/model_4/tf.strided_slice_1/StridedSlice", "PartitionedCall/model_4/tf.math.add_6/Add", "PartitionedCall/model_4/tf.concat/concat/axis"], "attr": {"T": {"type": "DT_FLOAT"}, "N": {"i": "3"}, "Tidx": {"type": "DT_INT32"}}}, {"name": "PartitionedCall/model_4/tf.nn.convolution_5/convolution", "op": "Conv2D", "input": ["PartitionedCall/model_4/tf.concat/concat", "13551"], "device": "/device:CPU:0", "attr": {"strides": {"list": {"i": ["1", "1", "1", "1"]}}, "data_format": {"s": "TkhXQw=="}, "use_cudnn_on_gpu": {"b": true}, "T": {"type": "DT_FLOAT"}, "explicit_paddings": {"list": {}}, "padding": {"s": "U0FNRQ=="}, "dilations": {"list": {"i": ["1", "1", "1", "1"]}}}}, {"name": "PartitionedCall/model_4/tf.math.add_7/Add", "op": "AddV2", "input": ["PartitionedCall/model_4/tf.nn.convolution_5/convolution", "13553"], "attr": {"T": {"type": "DT_FLOAT"}}}, {"name": "PartitionedCall/model_4/tf.math.sigmoid_5/Sigmoid", "op": "Sigmoid", "input": ["PartitionedCall/model_4/tf.math.add_7/Add"], "attr": {"T": {"type": "DT_FLOAT"}}}, {"name": "PartitionedCall/model_4/tf.math.multiply_25/Mul", "op": "Mul", "input": ["PartitionedCall/model_4/tf.math.add_7/Add", "PartitionedCall/model_4/tf.math.sigmoid_5/Sigmoid"], "attr": {"T": {"type": "DT_FLOAT"}}}, {"name": "PartitionedCall/model_4/tf.compat.v1.pad_2/Pad", "op": "Pad", "input": ["PartitionedCall/model_4/tf.math.multiply_25/Mul", "13555"], "attr": {"T": {"type": "DT_FLOAT"}, "Tpaddings": {"type": "DT_INT32"}}}, {"name": "PartitionedCall/model_4/tf.nn.convolution_6/convolution", "op": "Conv2D", "input": ["PartitionedCall/model_4/tf.compat.v1.pad_2/Pad", "13557"], "device": "/device:CPU:0", "attr": {"use_cudnn_on_gpu": {"b": true}, "strides": {"list": {"i": ["1", "2", "2", "1"]}}, "dilations": {"list": {"i": ["1", "1", "1", "1"]}}, "explicit_paddings": {"list": {}}, "T": {"type": "DT_FLOAT"}, "data_format": {"s": "TkhXQw=="}, "padding": {"s": "VkFMSUQ="}}}, {"name": "PartitionedCall/model_4/tf.math.add_8/Add", "op": "AddV2", "input": ["PartitionedCall/model_4/tf.nn.convolution_6/convolution", "13559"], "attr": {"T": {"type": "DT_FLOAT"}}}, {"name": "PartitionedCall/model_4/tf.math.sigmoid_6/Sigmoid", "op": "Sigmoid", "input": ["PartitionedCall/model_4/tf.math.add_8/Add"], "attr": {"T": {"type": "DT_FLOAT"}}}, {"name": "PartitionedCall/model_4/tf.math.multiply_29/Mul", "op": "Mul", "input": ["PartitionedCall/model_4/tf.math.add_8/Add", "PartitionedCall/model_4/tf.math.sigmoid_6/Sigmoid"], "attr": {"T": {"type": "DT_FLOAT"}}}, {"name": "PartitionedCall/model_4/tf.nn.convolution_7/convolution", "op": "Conv2D", "input": ["PartitionedCall/model_4/tf.math.multiply_29/Mul", "13561"], "device": "/device:CPU:0", "attr": {"explicit_paddings": {"list": {}}, "padding": {"s": "U0FNRQ=="}, "use_cudnn_on_gpu": {"b": true}, "strides": {"list": {"i": ["1", "1", "1", "1"]}}, "data_format": {"s": "TkhXQw=="}, "T": {"type": "DT_FLOAT"}, "dilations": {"list": {"i": ["1", "1", "1", "1"]}}}}, {"name": "PartitionedCall/model_4/tf.math.add_9/Add", "op": "AddV2", "input": ["PartitionedCall/model_4/tf.nn.convolution_7/convolution", "13563"], "attr": {"T": {"type": "DT_FLOAT"}}}, {"name": "PartitionedCall/model_4/tf.math.sigmoid_7/Sigmoid", "op": "Sigmoid", "input": ["PartitionedCall/model_4/tf.math.add_9/Add"], "attr": {"T": {"type": "DT_FLOAT"}}}, {"name": "PartitionedCall/model_4/tf.math.multiply_33/Mul", "op": "Mul", "input": ["PartitionedCall/model_4/tf.math.add_9/Add", "PartitionedCall/model_4/tf.math.sigmoid_7/Sigmoid"], "attr": {"T": {"type": "DT_FLOAT"}}}, {"name": "PartitionedCall/model_4/tf.strided_slice_2/StridedSlice", "op": "StridedSlice", "input": ["PartitionedCall/model_4/tf.math.multiply_33/Mul", "13585", "13587", "PartitionedCall/model_4/tf.strided_slice_2/ones_like"], "attr": {"begin_mask": {"i": "15"}, "ellipsis_mask": {"i": "0"}, "T": {"type": "DT_FLOAT"}, "end_mask": {"i": "7"}, "shrink_axis_mask": {"i": "0"}, "Index": {"type": "DT_INT64"}, "new_axis_mask": {"i": "0"}}}, {"name": "PartitionedCall/model_4/tf.strided_slice_3/StridedSlice", "op": "StridedSlice", "input": ["PartitionedCall/model_4/tf.math.multiply_33/Mul", "13565", "13567", "PartitionedCall/model_4/tf.strided_slice_3/ones_like"], "attr": {"begin_mask": {"i": "7"}, "ellipsis_mask": {"i": "0"}, "Index": {"type": "DT_INT64"}, "T": {"type": "DT_FLOAT"}, "new_axis_mask": {"i": "0"}, "shrink_axis_mask": {"i": "0"}, "end_mask": {"i": "7"}}}, {"name": "PartitionedCall/model_4/tf.nn.convolution_8/convolution", "op": "Conv2D", "input": ["PartitionedCall/model_4/tf.strided_slice_3/StridedSlice", "13569"], "device": "/device:CPU:0", "attr": {"data_format": {"s": "TkhXQw=="}, "use_cudnn_on_gpu": {"b": true}, "strides": {"list": {"i": ["1", "1", "1", "1"]}}, "padding": {"s": "U0FNRQ=="}, "dilations": {"list": {"i": ["1", "1", "1", "1"]}}, "explicit_paddings": {"list": {}}, "T": {"type": "DT_FLOAT"}}}, {"name": "PartitionedCall/model_4/tf.math.add_10/Add", "op": "AddV2", "input": ["PartitionedCall/model_4/tf.nn.convolution_8/convolution", "13571"], "attr": {"T": {"type": "DT_FLOAT"}}}, {"name": "PartitionedCall/model_4/tf.math.sigmoid_8/Sigmoid", "op": "Sigmoid", "input": ["PartitionedCall/model_4/tf.math.add_10/Add"], "attr": {"T": {"type": "DT_FLOAT"}}}, {"name": "PartitionedCall/model_4/tf.math.multiply_37/Mul", "op": "Mul", "input": ["PartitionedCall/model_4/tf.math.add_10/Add", "PartitionedCall/model_4/tf.math.sigmoid_8/Sigmoid"], "attr": {"T": {"type": "DT_FLOAT"}}}, {"name": "PartitionedCall/model_4/tf.nn.convolution_9/convolution", "op": "Conv2D", "input": ["PartitionedCall/model_4/tf.math.multiply_37/Mul", "13573"], "device": "/device:CPU:0", "attr": {"explicit_paddings": {"list": {}}, "dilations": {"list": {"i": ["1", "1", "1", "1"]}}, "T": {"type": "DT_FLOAT"}, "padding": {"s": "U0FNRQ=="}, "use_cudnn_on_gpu": {"b": true}, "data_format": {"s": "TkhXQw=="}, "strides": {"list": {"i": ["1", "1", "1", "1"]}}}}, {"name": "PartitionedCall/model_4/tf.math.add_11/Add", "op": "AddV2", "input": ["PartitionedCall/model_4/tf.nn.convolution_9/convolution", "13575"], "attr": {"T": {"type": "DT_FLOAT"}}}, {"name": "PartitionedCall/model_4/tf.math.sigmoid_9/Sigmoid", "op": "Sigmoid", "input": ["PartitionedCall/model_4/tf.math.add_11/Add"], "attr": {"T": {"type": "DT_FLOAT"}}}, {"name": "PartitionedCall/model_4/tf.math.multiply_41/Mul", "op": "Mul", "input": ["PartitionedCall/model_4/tf.math.add_11/Add", "PartitionedCall/model_4/tf.math.sigmoid_9/Sigmoid"], "attr": {"T": {"type": "DT_FLOAT"}}}, {"name": "PartitionedCall/model_4/tf.math.add_13/Add", "op": "AddV2", "input": ["PartitionedCall/model_4/tf.strided_slice_3/StridedSlice", "PartitionedCall/model_4/tf.math.multiply_41/Mul"], "attr": {"T": {"type": "DT_FLOAT"}}}, {"name": "PartitionedCall/model_4/tf.nn.convolution_10/convolution", "op": "Conv2D", "input": ["PartitionedCall/model_4/tf.math.add_13/Add", "13577"], "device": "/device:CPU:0", "attr": {"use_cudnn_on_gpu": {"b": true}, "data_format": {"s": "TkhXQw=="}, "strides": {"list": {"i": ["1", "1", "1", "1"]}}, "dilations": {"list": {"i": ["1", "1", "1", "1"]}}, "explicit_paddings": {"list": {}}, "padding": {"s": "U0FNRQ=="}, "T": {"type": "DT_FLOAT"}}}, {"name": "PartitionedCall/model_4/tf.math.add_14/Add", "op": "AddV2", "input": ["PartitionedCall/model_4/tf.nn.convolution_10/convolution", "13579"], "attr": {"T": {"type": "DT_FLOAT"}}}, {"name": "PartitionedCall/model_4/tf.math.sigmoid_10/Sigmoid", "op": "Sigmoid", "input": ["PartitionedCall/model_4/tf.math.add_14/Add"], "attr": {"T": {"type": "DT_FLOAT"}}}, {"name": "PartitionedCall/model_4/tf.math.multiply_47/Mul", "op": "Mul", "input": ["PartitionedCall/model_4/tf.math.add_14/Add", "PartitionedCall/model_4/tf.math.sigmoid_10/Sigmoid"], "attr": {"T": {"type": "DT_FLOAT"}}}, {"name": "PartitionedCall/model_4/tf.nn.convolution_11/convolution", "op": "Conv2D", "input": ["PartitionedCall/model_4/tf.math.multiply_47/Mul", "13581"], "device": "/device:CPU:0", "attr": {"padding": {"s": "U0FNRQ=="}, "use_cudnn_on_gpu": {"b": true}, "T": {"type": "DT_FLOAT"}, "strides": {"list": {"i": ["1", "1", "1", "1"]}}, "dilations": {"list": {"i": ["1", "1", "1", "1"]}}, "explicit_paddings": {"list": {}}, "data_format": {"s": "TkhXQw=="}}}, {"name": "PartitionedCall/model_4/tf.math.add_15/Add", "op": "AddV2", "input": ["PartitionedCall/model_4/tf.nn.convolution_11/convolution", "13583"], "attr": {"T": {"type": "DT_FLOAT"}}}, {"name": "PartitionedCall/model_4/tf.math.sigmoid_11/Sigmoid", "op": "Sigmoid", "input": ["PartitionedCall/model_4/tf.math.add_15/Add"], "attr": {"T": {"type": "DT_FLOAT"}}}, {"name": "PartitionedCall/model_4/tf.math.multiply_51/Mul", "op": "Mul", "input": ["PartitionedCall/model_4/tf.math.add_15/Add", "PartitionedCall/model_4/tf.math.sigmoid_11/Sigmoid"], "attr": {"T": {"type": "DT_FLOAT"}}}, {"name": "PartitionedCall/model_4/tf.math.add_17/Add", "op": "AddV2", "input": ["PartitionedCall/model_4/tf.math.add_13/Add", "PartitionedCall/model_4/tf.math.multiply_51/Mul"], "attr": {"T": {"type": "DT_FLOAT"}}}, {"name": "PartitionedCall/model_4/tf.concat_1/concat", "op": "ConcatV2", "input": ["PartitionedCall/model_4/tf.strided_slice_2/StridedSlice", "PartitionedCall/model_4/tf.strided_slice_3/StridedSlice", "PartitionedCall/model_4/tf.math.add_13/Add", "PartitionedCall/model_4/tf.math.add_17/Add", "PartitionedCall/model_4/tf.concat_1/concat/axis"], "attr": {"Tidx": {"type": "DT_INT32"}, "N": {"i": "4"}, "T": {"type": "DT_FLOAT"}}}, {"name": "PartitionedCall/model_4/tf.nn.convolution_12/convolution", "op": "Conv2D", "input": ["PartitionedCall/model_4/tf.concat_1/concat", "13589"], "device": "/device:CPU:0", "attr": {"dilations": {"list": {"i": ["1", "1", "1", "1"]}}, "strides": {"list": {"i": ["1", "1", "1", "1"]}}, "data_format": {"s": "TkhXQw=="}, "use_cudnn_on_gpu": {"b": true}, "T": {"type": "DT_FLOAT"}, "padding": {"s": "U0FNRQ=="}, "explicit_paddings": {"list": {}}}}, {"name": "PartitionedCall/model_4/tf.math.add_18/Add", "op": "AddV2", "input": ["PartitionedCall/model_4/tf.nn.convolution_12/convolution", "13591"], "attr": {"T": {"type": "DT_FLOAT"}}}, {"name": "PartitionedCall/model_4/tf.math.sigmoid_12/Sigmoid", "op": "Sigmoid", "input": ["PartitionedCall/model_4/tf.math.add_18/Add"], "attr": {"T": {"type": "DT_FLOAT"}}}, {"name": "PartitionedCall/model_4/tf.math.multiply_57/Mul", "op": "Mul", "input": ["PartitionedCall/model_4/tf.math.add_18/Add", "PartitionedCall/model_4/tf.math.sigmoid_12/Sigmoid"], "attr": {"T": {"type": "DT_FLOAT"}}}, {"name": "PartitionedCall/model_4/tf.compat.v1.pad_3/Pad", "op": "Pad", "input": ["PartitionedCall/model_4/tf.math.multiply_57/Mul", "13593"], "attr": {"T": {"type": "DT_FLOAT"}, "Tpaddings": {"type": "DT_INT32"}}}, {"name": "PartitionedCall/model_4/tf.nn.convolution_13/convolution", "op": "Conv2D", "input": ["PartitionedCall/model_4/tf.compat.v1.pad_3/Pad", "13595"], "device": "/device:CPU:0", "attr": {"use_cudnn_on_gpu": {"b": true}, "T": {"type": "DT_FLOAT"}, "padding": {"s": "VkFMSUQ="}, "dilations": {"list": {"i": ["1", "1", "1", "1"]}}, "explicit_paddings": {"list": {}}, "data_format": {"s": "TkhXQw=="}, "strides": {"list": {"i": ["1", "2", "2", "1"]}}}}, {"name": "PartitionedCall/model_4/tf.math.add_19/Add", "op": "AddV2", "input": ["PartitionedCall/model_4/tf.nn.convolution_13/convolution", "13597"], "attr": {"T": {"type": "DT_FLOAT"}}}, {"name": "PartitionedCall/model_4/tf.math.sigmoid_13/Sigmoid", "op": "Sigmoid", "input": ["PartitionedCall/model_4/tf.math.add_19/Add"], "attr": {"T": {"type": "DT_FLOAT"}}}, {"name": "PartitionedCall/model_4/tf.math.multiply_61/Mul", "op": "Mul", "input": ["PartitionedCall/model_4/tf.math.add_19/Add", "PartitionedCall/model_4/tf.math.sigmoid_13/Sigmoid"], "attr": {"T": {"type": "DT_FLOAT"}}}, {"name": "PartitionedCall/model_4/tf.nn.convolution_14/convolution", "op": "Conv2D", "input": ["PartitionedCall/model_4/tf.math.multiply_61/Mul", "13599"], "device": "/device:CPU:0", "attr": {"data_format": {"s": "TkhXQw=="}, "use_cudnn_on_gpu": {"b": true}, "dilations": {"list": {"i": ["1", "1", "1", "1"]}}, "strides": {"list": {"i": ["1", "1", "1", "1"]}}, "explicit_paddings": {"list": {}}, "padding": {"s": "U0FNRQ=="}, "T": {"type": "DT_FLOAT"}}}, {"name": "PartitionedCall/model_4/tf.math.add_20/Add", "op": "AddV2", "input": ["PartitionedCall/model_4/tf.nn.convolution_14/convolution", "13601"], "attr": {"T": {"type": "DT_FLOAT"}}}, {"name": "PartitionedCall/model_4/tf.math.sigmoid_14/Sigmoid", "op": "Sigmoid", "input": ["PartitionedCall/model_4/tf.math.add_20/Add"], "attr": {"T": {"type": "DT_FLOAT"}}}, {"name": "PartitionedCall/model_4/tf.math.multiply_65/Mul", "op": "Mul", "input": ["PartitionedCall/model_4/tf.math.add_20/Add", "PartitionedCall/model_4/tf.math.sigmoid_14/Sigmoid"], "attr": {"T": {"type": "DT_FLOAT"}}}, {"name": "PartitionedCall/model_4/tf.strided_slice_4/StridedSlice", "op": "StridedSlice", "input": ["PartitionedCall/model_4/tf.math.multiply_65/Mul", "13623", "13625", "PartitionedCall/model_4/tf.strided_slice_4/ones_like"], "attr": {"ellipsis_mask": {"i": "0"}, "shrink_axis_mask": {"i": "0"}, "T": {"type": "DT_FLOAT"}, "new_axis_mask": {"i": "0"}, "begin_mask": {"i": "15"}, "end_mask": {"i": "7"}, "Index": {"type": "DT_INT64"}}}, {"name": "PartitionedCall/model_4/tf.strided_slice_5/StridedSlice", "op": "StridedSlice", "input": ["PartitionedCall/model_4/tf.math.multiply_65/Mul", "13603", "13605", "PartitionedCall/model_4/tf.strided_slice_5/ones_like"], "attr": {"new_axis_mask": {"i": "0"}, "shrink_axis_mask": {"i": "0"}, "end_mask": {"i": "7"}, "ellipsis_mask": {"i": "0"}, "Index": {"type": "DT_INT64"}, "T": {"type": "DT_FLOAT"}, "begin_mask": {"i": "7"}}}, {"name": "PartitionedCall/model_4/tf.nn.convolution_15/convolution", "op": "Conv2D", "input": ["PartitionedCall/model_4/tf.strided_slice_5/StridedSlice", "13607"], "device": "/device:CPU:0", "attr": {"explicit_paddings": {"list": {}}, "T": {"type": "DT_FLOAT"}, "dilations": {"list": {"i": ["1", "1", "1", "1"]}}, "use_cudnn_on_gpu": {"b": true}, "data_format": {"s": "TkhXQw=="}, "padding": {"s": "U0FNRQ=="}, "strides": {"list": {"i": ["1", "1", "1", "1"]}}}}, {"name": "PartitionedCall/model_4/tf.math.add_21/Add", "op": "AddV2", "input": ["PartitionedCall/model_4/tf.nn.convolution_15/convolution", "13609"], "attr": {"T": {"type": "DT_FLOAT"}}}, {"name": "PartitionedCall/model_4/tf.math.sigmoid_15/Sigmoid", "op": "Sigmoid", "input": ["PartitionedCall/model_4/tf.math.add_21/Add"], "attr": {"T": {"type": "DT_FLOAT"}}}, {"name": "PartitionedCall/model_4/tf.math.multiply_69/Mul", "op": "Mul", "input": ["PartitionedCall/model_4/tf.math.add_21/Add", "PartitionedCall/model_4/tf.math.sigmoid_15/Sigmoid"], "attr": {"T": {"type": "DT_FLOAT"}}}, {"name": "PartitionedCall/model_4/tf.nn.convolution_16/convolution", "op": "Conv2D", "input": ["PartitionedCall/model_4/tf.math.multiply_69/Mul", "13611"], "device": "/device:CPU:0", "attr": {"dilations": {"list": {"i": ["1", "1", "1", "1"]}}, "explicit_paddings": {"list": {}}, "strides": {"list": {"i": ["1", "1", "1", "1"]}}, "padding": {"s": "U0FNRQ=="}, "T": {"type": "DT_FLOAT"}, "use_cudnn_on_gpu": {"b": true}, "data_format": {"s": "TkhXQw=="}}}, {"name": "PartitionedCall/model_4/tf.math.add_22/Add", "op": "AddV2", "input": ["PartitionedCall/model_4/tf.nn.convolution_16/convolution", "13613"], "attr": {"T": {"type": "DT_FLOAT"}}}, {"name": "PartitionedCall/model_4/tf.math.sigmoid_16/Sigmoid", "op": "Sigmoid", "input": ["PartitionedCall/model_4/tf.math.add_22/Add"], "attr": {"T": {"type": "DT_FLOAT"}}}, {"name": "PartitionedCall/model_4/tf.math.multiply_73/Mul", "op": "Mul", "input": ["PartitionedCall/model_4/tf.math.add_22/Add", "PartitionedCall/model_4/tf.math.sigmoid_16/Sigmoid"], "attr": {"T": {"type": "DT_FLOAT"}}}, {"name": "PartitionedCall/model_4/tf.math.add_24/Add", "op": "AddV2", "input": ["PartitionedCall/model_4/tf.strided_slice_5/StridedSlice", "PartitionedCall/model_4/tf.math.multiply_73/Mul"], "attr": {"T": {"type": "DT_FLOAT"}}}, {"name": "PartitionedCall/model_4/tf.nn.convolution_17/convolution", "op": "Conv2D", "input": ["PartitionedCall/model_4/tf.math.add_24/Add", "13615"], "device": "/device:CPU:0", "attr": {"padding": {"s": "U0FNRQ=="}, "T": {"type": "DT_FLOAT"}, "dilations": {"list": {"i": ["1", "1", "1", "1"]}}, "explicit_paddings": {"list": {}}, "strides": {"list": {"i": ["1", "1", "1", "1"]}}, "use_cudnn_on_gpu": {"b": true}, "data_format": {"s": "TkhXQw=="}}}, {"name": "PartitionedCall/model_4/tf.math.add_25/Add", "op": "AddV2", "input": ["PartitionedCall/model_4/tf.nn.convolution_17/convolution", "13617"], "attr": {"T": {"type": "DT_FLOAT"}}}, {"name": "PartitionedCall/model_4/tf.math.sigmoid_17/Sigmoid", "op": "Sigmoid", "input": ["PartitionedCall/model_4/tf.math.add_25/Add"], "attr": {"T": {"type": "DT_FLOAT"}}}, {"name": "PartitionedCall/model_4/tf.math.multiply_79/Mul", "op": "Mul", "input": ["PartitionedCall/model_4/tf.math.add_25/Add", "PartitionedCall/model_4/tf.math.sigmoid_17/Sigmoid"], "attr": {"T": {"type": "DT_FLOAT"}}}, {"name": "PartitionedCall/model_4/tf.nn.convolution_18/convolution", "op": "Conv2D", "input": ["PartitionedCall/model_4/tf.math.multiply_79/Mul", "13619"], "device": "/device:CPU:0", "attr": {"data_format": {"s": "TkhXQw=="}, "padding": {"s": "U0FNRQ=="}, "T": {"type": "DT_FLOAT"}, "explicit_paddings": {"list": {}}, "dilations": {"list": {"i": ["1", "1", "1", "1"]}}, "strides": {"list": {"i": ["1", "1", "1", "1"]}}, "use_cudnn_on_gpu": {"b": true}}}, {"name": "PartitionedCall/model_4/tf.math.add_26/Add", "op": "AddV2", "input": ["PartitionedCall/model_4/tf.nn.convolution_18/convolution", "13621"], "attr": {"T": {"type": "DT_FLOAT"}}}, {"name": "PartitionedCall/model_4/tf.math.sigmoid_18/Sigmoid", "op": "Sigmoid", "input": ["PartitionedCall/model_4/tf.math.add_26/Add"], "attr": {"T": {"type": "DT_FLOAT"}}}, {"name": "PartitionedCall/model_4/tf.math.multiply_83/Mul", "op": "Mul", "input": ["PartitionedCall/model_4/tf.math.add_26/Add", "PartitionedCall/model_4/tf.math.sigmoid_18/Sigmoid"], "attr": {"T": {"type": "DT_FLOAT"}}}, {"name": "PartitionedCall/model_4/tf.math.add_28/Add", "op": "AddV2", "input": ["PartitionedCall/model_4/tf.math.add_24/Add", "PartitionedCall/model_4/tf.math.multiply_83/Mul"], "attr": {"T": {"type": "DT_FLOAT"}}}, {"name": "PartitionedCall/model_4/tf.concat_2/concat", "op": "ConcatV2", "input": ["PartitionedCall/model_4/tf.strided_slice_4/StridedSlice", "PartitionedCall/model_4/tf.strided_slice_5/StridedSlice", "PartitionedCall/model_4/tf.math.add_24/Add", "PartitionedCall/model_4/tf.math.add_28/Add", "PartitionedCall/model_4/tf.concat_2/concat/axis"], "attr": {"Tidx": {"type": "DT_INT32"}, "T": {"type": "DT_FLOAT"}, "N": {"i": "4"}}}, {"name": "PartitionedCall/model_4/tf.nn.convolution_19/convolution", "op": "Conv2D", "input": ["PartitionedCall/model_4/tf.concat_2/concat", "13627"], "device": "/device:CPU:0", "attr": {"data_format": {"s": "TkhXQw=="}, "use_cudnn_on_gpu": {"b": true}, "padding": {"s": "U0FNRQ=="}, "T": {"type": "DT_FLOAT"}, "dilations": {"list": {"i": ["1", "1", "1", "1"]}}, "strides": {"list": {"i": ["1", "1", "1", "1"]}}, "explicit_paddings": {"list": {}}}}, {"name": "PartitionedCall/model_4/tf.math.add_29/Add", "op": "AddV2", "input": ["PartitionedCall/model_4/tf.nn.convolution_19/convolution", "13629"], "attr": {"T": {"type": "DT_FLOAT"}}}, {"name": "PartitionedCall/model_4/tf.math.sigmoid_19/Sigmoid", "op": "Sigmoid", "input": ["PartitionedCall/model_4/tf.math.add_29/Add"], "attr": {"T": {"type": "DT_FLOAT"}}}, {"name": "PartitionedCall/model_4/tf.math.multiply_89/Mul", "op": "Mul", "input": ["PartitionedCall/model_4/tf.math.add_29/Add", "PartitionedCall/model_4/tf.math.sigmoid_19/Sigmoid"], "attr": {"T": {"type": "DT_FLOAT"}}}, {"name": "PartitionedCall/model_4/tf.compat.v1.pad_4/Pad", "op": "Pad", "input": ["PartitionedCall/model_4/tf.math.multiply_89/Mul", "13631"], "attr": {"T": {"type": "DT_FLOAT"}, "Tpaddings": {"type": "DT_INT32"}}}, {"name": "PartitionedCall/model_4/tf.nn.convolution_20/convolution", "op": "Conv2D", "input": ["PartitionedCall/model_4/tf.compat.v1.pad_4/Pad", "13633"], "device": "/device:CPU:0", "attr": {"strides": {"list": {"i": ["1", "2", "2", "1"]}}, "explicit_paddings": {"list": {}}, "padding": {"s": "VkFMSUQ="}, "data_format": {"s": "TkhXQw=="}, "T": {"type": "DT_FLOAT"}, "use_cudnn_on_gpu": {"b": true}, "dilations": {"list": {"i": ["1", "1", "1", "1"]}}}}, {"name": "PartitionedCall/model_4/tf.math.add_30/Add", "op": "AddV2", "input": ["PartitionedCall/model_4/tf.nn.convolution_20/convolution", "13635"], "attr": {"T": {"type": "DT_FLOAT"}}}, {"name": "PartitionedCall/model_4/tf.math.sigmoid_20/Sigmoid", "op": "Sigmoid", "input": ["PartitionedCall/model_4/tf.math.add_30/Add"], "attr": {"T": {"type": "DT_FLOAT"}}}, {"name": "PartitionedCall/model_4/tf.math.multiply_93/Mul", "op": "Mul", "input": ["PartitionedCall/model_4/tf.math.add_30/Add", "PartitionedCall/model_4/tf.math.sigmoid_20/Sigmoid"], "attr": {"T": {"type": "DT_FLOAT"}}}, {"name": "PartitionedCall/model_4/tf.nn.convolution_21/convolution", "op": "Conv2D", "input": ["PartitionedCall/model_4/tf.math.multiply_93/Mul", "13637"], "device": "/device:CPU:0", "attr": {"explicit_paddings": {"list": {}}, "data_format": {"s": "TkhXQw=="}, "use_cudnn_on_gpu": {"b": true}, "strides": {"list": {"i": ["1", "1", "1", "1"]}}, "dilations": {"list": {"i": ["1", "1", "1", "1"]}}, "padding": {"s": "U0FNRQ=="}, "T": {"type": "DT_FLOAT"}}}, {"name": "PartitionedCall/model_4/tf.math.add_31/Add", "op": "AddV2", "input": ["PartitionedCall/model_4/tf.nn.convolution_21/convolution", "13639"], "attr": {"T": {"type": "DT_FLOAT"}}}, {"name": "PartitionedCall/model_4/tf.math.sigmoid_21/Sigmoid", "op": "Sigmoid", "input": ["PartitionedCall/model_4/tf.math.add_31/Add"], "attr": {"T": {"type": "DT_FLOAT"}}}, {"name": "PartitionedCall/model_4/tf.math.multiply_97/Mul", "op": "Mul", "input": ["PartitionedCall/model_4/tf.math.add_31/Add", "PartitionedCall/model_4/tf.math.sigmoid_21/Sigmoid"], "attr": {"T": {"type": "DT_FLOAT"}}}, {"name": "PartitionedCall/model_4/tf.strided_slice_6/StridedSlice", "op": "StridedSlice", "input": ["PartitionedCall/model_4/tf.math.multiply_97/Mul", "13653", "13655", "PartitionedCall/model_4/tf.strided_slice_6/ones_like"], "attr": {"shrink_axis_mask": {"i": "0"}, "new_axis_mask": {"i": "0"}, "ellipsis_mask": {"i": "0"}, "end_mask": {"i": "7"}, "begin_mask": {"i": "15"}, "Index": {"type": "DT_INT64"}, "T": {"type": "DT_FLOAT"}}}, {"name": "PartitionedCall/model_4/tf.strided_slice_7/StridedSlice", "op": "StridedSlice", "input": ["PartitionedCall/model_4/tf.math.multiply_97/Mul", "13641", "13643", "PartitionedCall/model_4/tf.strided_slice_7/ones_like"], "attr": {"Index": {"type": "DT_INT64"}, "ellipsis_mask": {"i": "0"}, "new_axis_mask": {"i": "0"}, "begin_mask": {"i": "7"}, "T": {"type": "DT_FLOAT"}, "shrink_axis_mask": {"i": "0"}, "end_mask": {"i": "7"}}}, {"name": "PartitionedCall/model_4/tf.nn.convolution_22/convolution", "op": "Conv2D", "input": ["PartitionedCall/model_4/tf.strided_slice_7/StridedSlice", "13645"], "device": "/device:CPU:0", "attr": {"data_format": {"s": "TkhXQw=="}, "use_cudnn_on_gpu": {"b": true}, "T": {"type": "DT_FLOAT"}, "padding": {"s": "U0FNRQ=="}, "dilations": {"list": {"i": ["1", "1", "1", "1"]}}, "strides": {"list": {"i": ["1", "1", "1", "1"]}}, "explicit_paddings": {"list": {}}}}, {"name": "PartitionedCall/model_4/tf.math.add_32/Add", "op": "AddV2", "input": ["PartitionedCall/model_4/tf.nn.convolution_22/convolution", "13647"], "attr": {"T": {"type": "DT_FLOAT"}}}, {"name": "PartitionedCall/model_4/tf.math.sigmoid_22/Sigmoid", "op": "Sigmoid", "input": ["PartitionedCall/model_4/tf.math.add_32/Add"], "attr": {"T": {"type": "DT_FLOAT"}}}, {"name": "PartitionedCall/model_4/tf.math.multiply_101/Mul", "op": "Mul", "input": ["PartitionedCall/model_4/tf.math.add_32/Add", "PartitionedCall/model_4/tf.math.sigmoid_22/Sigmoid"], "attr": {"T": {"type": "DT_FLOAT"}}}, {"name": "PartitionedCall/model_4/tf.nn.convolution_23/convolution", "op": "Conv2D", "input": ["PartitionedCall/model_4/tf.math.multiply_101/Mul", "13649"], "device": "/device:CPU:0", "attr": {"T": {"type": "DT_FLOAT"}, "strides": {"list": {"i": ["1", "1", "1", "1"]}}, "explicit_paddings": {"list": {}}, "use_cudnn_on_gpu": {"b": true}, "data_format": {"s": "TkhXQw=="}, "padding": {"s": "U0FNRQ=="}, "dilations": {"list": {"i": ["1", "1", "1", "1"]}}}}, {"name": "PartitionedCall/model_4/tf.math.add_33/Add", "op": "AddV2", "input": ["PartitionedCall/model_4/tf.nn.convolution_23/convolution", "13651"], "attr": {"T": {"type": "DT_FLOAT"}}}, {"name": "PartitionedCall/model_4/tf.math.sigmoid_23/Sigmoid", "op": "Sigmoid", "input": ["PartitionedCall/model_4/tf.math.add_33/Add"], "attr": {"T": {"type": "DT_FLOAT"}}}, {"name": "PartitionedCall/model_4/tf.math.multiply_105/Mul", "op": "Mul", "input": ["PartitionedCall/model_4/tf.math.add_33/Add", "PartitionedCall/model_4/tf.math.sigmoid_23/Sigmoid"], "attr": {"T": {"type": "DT_FLOAT"}}}, {"name": "PartitionedCall/model_4/tf.math.add_35/Add", "op": "AddV2", "input": ["PartitionedCall/model_4/tf.strided_slice_7/StridedSlice", "PartitionedCall/model_4/tf.math.multiply_105/Mul"], "attr": {"T": {"type": "DT_FLOAT"}}}, {"name": "PartitionedCall/model_4/tf.concat_3/concat", "op": "ConcatV2", "input": ["PartitionedCall/model_4/tf.strided_slice_6/StridedSlice", "PartitionedCall/model_4/tf.strided_slice_7/StridedSlice", "PartitionedCall/model_4/tf.math.add_35/Add", "PartitionedCall/model_4/tf.concat_3/concat/axis"], "attr": {"T": {"type": "DT_FLOAT"}, "Tidx": {"type": "DT_INT32"}, "N": {"i": "3"}}}, {"name": "PartitionedCall/model_4/tf.nn.convolution_24/convolution", "op": "Conv2D", "input": ["PartitionedCall/model_4/tf.concat_3/concat", "13657"], "device": "/device:CPU:0", "attr": {"dilations": {"list": {"i": ["1", "1", "1", "1"]}}, "strides": {"list": {"i": ["1", "1", "1", "1"]}}, "padding": {"s": "U0FNRQ=="}, "T": {"type": "DT_FLOAT"}, "explicit_paddings": {"list": {}}, "data_format": {"s": "TkhXQw=="}, "use_cudnn_on_gpu": {"b": true}}}, {"name": "PartitionedCall/model_4/tf.math.add_36/Add", "op": "AddV2", "input": ["PartitionedCall/model_4/tf.nn.convolution_24/convolution", "13659"], "attr": {"T": {"type": "DT_FLOAT"}}}, {"name": "PartitionedCall/model_4/tf.math.sigmoid_24/Sigmoid", "op": "Sigmoid", "input": ["PartitionedCall/model_4/tf.math.add_36/Add"], "attr": {"T": {"type": "DT_FLOAT"}}}, {"name": "PartitionedCall/model_4/tf.math.multiply_111/Mul", "op": "Mul", "input": ["PartitionedCall/model_4/tf.math.add_36/Add", "PartitionedCall/model_4/tf.math.sigmoid_24/Sigmoid"], "attr": {"T": {"type": "DT_FLOAT"}}}, {"name": "PartitionedCall/model_4/tf.nn.convolution_25/convolution", "op": "Conv2D", "input": ["PartitionedCall/model_4/tf.math.multiply_111/Mul", "13661"], "device": "/device:CPU:0", "attr": {"explicit_paddings": {"list": {}}, "use_cudnn_on_gpu": {"b": true}, "T": {"type": "DT_FLOAT"}, "padding": {"s": "U0FNRQ=="}, "data_format": {"s": "TkhXQw=="}, "dilations": {"list": {"i": ["1", "1", "1", "1"]}}, "strides": {"list": {"i": ["1", "1", "1", "1"]}}}}, {"name": "PartitionedCall/model_4/tf.math.add_37/Add", "op": "AddV2", "input": ["PartitionedCall/model_4/tf.nn.convolution_25/convolution", "13663"], "attr": {"T": {"type": "DT_FLOAT"}}}, {"name": "PartitionedCall/model_4/tf.math.sigmoid_25/Sigmoid", "op": "Sigmoid", "input": ["PartitionedCall/model_4/tf.math.add_37/Add"], "attr": {"T": {"type": "DT_FLOAT"}}}, {"name": "PartitionedCall/model_4/tf.math.multiply_115/Mul", "op": "Mul", "input": ["PartitionedCall/model_4/tf.math.add_37/Add", "PartitionedCall/model_4/tf.math.sigmoid_25/Sigmoid"], "attr": {"T": {"type": "DT_FLOAT"}}}, {"name": "PartitionedCall/model_4/tf.compat.v1.nn.pool/max_pool", "op": "MaxPool", "input": ["PartitionedCall/model_4/tf.math.multiply_115/Mul"], "attr": {"T": {"type": "DT_FLOAT"}, "explicit_paddings": {"list": {}}, "strides": {"list": {"i": ["1", "1", "1", "1"]}}, "data_format": {"s": "TkhXQw=="}, "padding": {"s": "U0FNRQ=="}, "ksize": {"list": {"i": ["1", "5", "5", "1"]}}}}, {"name": "PartitionedCall/model_4/tf.compat.v1.nn.pool_1/max_pool", "op": "MaxPool", "input": ["PartitionedCall/model_4/tf.compat.v1.nn.pool/max_pool"], "attr": {"strides": {"list": {"i": ["1", "1", "1", "1"]}}, "ksize": {"list": {"i": ["1", "5", "5", "1"]}}, "padding": {"s": "U0FNRQ=="}, "T": {"type": "DT_FLOAT"}, "data_format": {"s": "TkhXQw=="}, "explicit_paddings": {"list": {}}}}, {"name": "PartitionedCall/model_4/tf.compat.v1.nn.pool_2/max_pool", "op": "MaxPool", "input": ["PartitionedCall/model_4/tf.compat.v1.nn.pool_1/max_pool"], "attr": {"strides": {"list": {"i": ["1", "1", "1", "1"]}}, "padding": {"s": "U0FNRQ=="}, "explicit_paddings": {"list": {}}, "ksize": {"list": {"i": ["1", "5", "5", "1"]}}, "T": {"type": "DT_FLOAT"}, "data_format": {"s": "TkhXQw=="}}}, {"name": "PartitionedCall/model_4/tf.concat_4/concat", "op": "ConcatV2", "input": ["PartitionedCall/model_4/tf.math.multiply_115/Mul", "PartitionedCall/model_4/tf.compat.v1.nn.pool/max_pool", "PartitionedCall/model_4/tf.compat.v1.nn.pool_1/max_pool", "PartitionedCall/model_4/tf.compat.v1.nn.pool_2/max_pool", "PartitionedCall/model_4/tf.concat_4/concat/axis"], "attr": {"N": {"i": "4"}, "T": {"type": "DT_FLOAT"}, "Tidx": {"type": "DT_INT32"}}}, {"name": "PartitionedCall/model_4/tf.nn.convolution_26/convolution", "op": "Conv2D", "input": ["PartitionedCall/model_4/tf.concat_4/concat", "13665"], "device": "/device:CPU:0", "attr": {"data_format": {"s": "TkhXQw=="}, "use_cudnn_on_gpu": {"b": true}, "strides": {"list": {"i": ["1", "1", "1", "1"]}}, "dilations": {"list": {"i": ["1", "1", "1", "1"]}}, "padding": {"s": "U0FNRQ=="}, "T": {"type": "DT_FLOAT"}, "explicit_paddings": {"list": {}}}}, {"name": "PartitionedCall/model_4/tf.math.add_38/Add", "op": "AddV2", "input": ["PartitionedCall/model_4/tf.nn.convolution_26/convolution", "13667"], "attr": {"T": {"type": "DT_FLOAT"}}}, {"name": "PartitionedCall/model_4/tf.math.sigmoid_26/Sigmoid", "op": "Sigmoid", "input": ["PartitionedCall/model_4/tf.math.add_38/Add"], "attr": {"T": {"type": "DT_FLOAT"}}}, {"name": "PartitionedCall/model_4/tf.math.multiply_119/Mul", "op": "Mul", "input": ["PartitionedCall/model_4/tf.math.add_38/Add", "PartitionedCall/model_4/tf.math.sigmoid_26/Sigmoid"], "attr": {"T": {"type": "DT_FLOAT"}}}, {"name": "PartitionedCall/model_4/lambda//model.10/Resize", "op": "ResizeNearestNeighbor", "input": ["PartitionedCall/model_4/tf.math.multiply_119/Mul", "PartitionedCall/model_4/lambda//model.10/Resize/size"], "attr": {"half_pixel_centers": {"b": false}, "align_corners": {"b": false}, "T": {"type": "DT_FLOAT"}}}, {"name": "PartitionedCall/model_4/tf.concat_5/concat", "op": "ConcatV2", "input": ["PartitionedCall/model_4/lambda//model.10/Resize", "PartitionedCall/model_4/tf.math.multiply_89/Mul", "PartitionedCall/model_4/tf.concat_5/concat/axis"], "attr": {"N": {"i": "2"}, "T": {"type": "DT_FLOAT"}, "Tidx": {"type": "DT_INT32"}}}, {"name": "PartitionedCall/model_4/tf.nn.convolution_27/convolution", "op": "Conv2D", "input": ["PartitionedCall/model_4/tf.concat_5/concat", "13669"], "device": "/device:CPU:0", "attr": {"data_format": {"s": "TkhXQw=="}, "T": {"type": "DT_FLOAT"}, "dilations": {"list": {"i": ["1", "1", "1", "1"]}}, "strides": {"list": {"i": ["1", "1", "1", "1"]}}, "padding": {"s": "U0FNRQ=="}, "explicit_paddings": {"list": {}}, "use_cudnn_on_gpu": {"b": true}}}, {"name": "PartitionedCall/model_4/tf.math.add_39/Add", "op": "AddV2", "input": ["PartitionedCall/model_4/tf.nn.convolution_27/convolution", "13671"], "attr": {"T": {"type": "DT_FLOAT"}}}, {"name": "PartitionedCall/model_4/tf.math.sigmoid_27/Sigmoid", "op": "Sigmoid", "input": ["PartitionedCall/model_4/tf.math.add_39/Add"], "attr": {"T": {"type": "DT_FLOAT"}}}, {"name": "PartitionedCall/model_4/tf.math.multiply_123/Mul", "op": "Mul", "input": ["PartitionedCall/model_4/tf.math.add_39/Add", "PartitionedCall/model_4/tf.math.sigmoid_27/Sigmoid"], "attr": {"T": {"type": "DT_FLOAT"}}}, {"name": "PartitionedCall/model_4/tf.strided_slice_8/StridedSlice", "op": "StridedSlice", "input": ["PartitionedCall/model_4/tf.math.multiply_123/Mul", "13685", "13687", "PartitionedCall/model_4/tf.strided_slice_8/ones_like"], "attr": {"Index": {"type": "DT_INT64"}, "new_axis_mask": {"i": "0"}, "ellipsis_mask": {"i": "0"}, "begin_mask": {"i": "15"}, "shrink_axis_mask": {"i": "0"}, "T": {"type": "DT_FLOAT"}, "end_mask": {"i": "7"}}}, {"name": "PartitionedCall/model_4/tf.strided_slice_9/StridedSlice", "op": "StridedSlice", "input": ["PartitionedCall/model_4/tf.math.multiply_123/Mul", "13673", "13675", "PartitionedCall/model_4/tf.strided_slice_9/ones_like"], "attr": {"Index": {"type": "DT_INT64"}, "ellipsis_mask": {"i": "0"}, "begin_mask": {"i": "7"}, "new_axis_mask": {"i": "0"}, "T": {"type": "DT_FLOAT"}, "end_mask": {"i": "7"}, "shrink_axis_mask": {"i": "0"}}}, {"name": "PartitionedCall/model_4/tf.nn.convolution_28/convolution", "op": "Conv2D", "input": ["PartitionedCall/model_4/tf.strided_slice_9/StridedSlice", "13677"], "device": "/device:CPU:0", "attr": {"use_cudnn_on_gpu": {"b": true}, "padding": {"s": "U0FNRQ=="}, "strides": {"list": {"i": ["1", "1", "1", "1"]}}, "T": {"type": "DT_FLOAT"}, "dilations": {"list": {"i": ["1", "1", "1", "1"]}}, "explicit_paddings": {"list": {}}, "data_format": {"s": "TkhXQw=="}}}, {"name": "PartitionedCall/model_4/tf.math.add_40/Add", "op": "AddV2", "input": ["PartitionedCall/model_4/tf.nn.convolution_28/convolution", "13679"], "attr": {"T": {"type": "DT_FLOAT"}}}, {"name": "PartitionedCall/model_4/tf.math.sigmoid_28/Sigmoid", "op": "Sigmoid", "input": ["PartitionedCall/model_4/tf.math.add_40/Add"], "attr": {"T": {"type": "DT_FLOAT"}}}, {"name": "PartitionedCall/model_4/tf.math.multiply_127/Mul", "op": "Mul", "input": ["PartitionedCall/model_4/tf.math.add_40/Add", "PartitionedCall/model_4/tf.math.sigmoid_28/Sigmoid"], "attr": {"T": {"type": "DT_FLOAT"}}}, {"name": "PartitionedCall/model_4/tf.nn.convolution_29/convolution", "op": "Conv2D", "input": ["PartitionedCall/model_4/tf.math.multiply_127/Mul", "13681"], "device": "/device:CPU:0", "attr": {"T": {"type": "DT_FLOAT"}, "explicit_paddings": {"list": {}}, "use_cudnn_on_gpu": {"b": true}, "data_format": {"s": "TkhXQw=="}, "strides": {"list": {"i": ["1", "1", "1", "1"]}}, "padding": {"s": "U0FNRQ=="}, "dilations": {"list": {"i": ["1", "1", "1", "1"]}}}}, {"name": "PartitionedCall/model_4/tf.math.add_41/Add", "op": "AddV2", "input": ["PartitionedCall/model_4/tf.nn.convolution_29/convolution", "13683"], "attr": {"T": {"type": "DT_FLOAT"}}}, {"name": "PartitionedCall/model_4/tf.math.sigmoid_29/Sigmoid", "op": "Sigmoid", "input": ["PartitionedCall/model_4/tf.math.add_41/Add"], "attr": {"T": {"type": "DT_FLOAT"}}}, {"name": "PartitionedCall/model_4/tf.math.multiply_131/Mul", "op": "Mul", "input": ["PartitionedCall/model_4/tf.math.add_41/Add", "PartitionedCall/model_4/tf.math.sigmoid_29/Sigmoid"], "attr": {"T": {"type": "DT_FLOAT"}}}, {"name": "PartitionedCall/model_4/tf.concat_6/concat", "op": "ConcatV2", "input": ["PartitionedCall/model_4/tf.strided_slice_8/StridedSlice", "PartitionedCall/model_4/tf.strided_slice_9/StridedSlice", "PartitionedCall/model_4/tf.math.multiply_131/Mul", "PartitionedCall/model_4/tf.concat_6/concat/axis"], "attr": {"Tidx": {"type": "DT_INT32"}, "N": {"i": "3"}, "T": {"type": "DT_FLOAT"}}}, {"name": "PartitionedCall/model_4/tf.nn.convolution_30/convolution", "op": "Conv2D", "input": ["PartitionedCall/model_4/tf.concat_6/concat", "13689"], "device": "/device:CPU:0", "attr": {"dilations": {"list": {"i": ["1", "1", "1", "1"]}}, "explicit_paddings": {"list": {}}, "strides": {"list": {"i": ["1", "1", "1", "1"]}}, "padding": {"s": "U0FNRQ=="}, "use_cudnn_on_gpu": {"b": true}, "T": {"type": "DT_FLOAT"}, "data_format": {"s": "TkhXQw=="}}}, {"name": "PartitionedCall/model_4/tf.math.add_42/Add", "op": "AddV2", "input": ["PartitionedCall/model_4/tf.nn.convolution_30/convolution", "13691"], "attr": {"T": {"type": "DT_FLOAT"}}}, {"name": "PartitionedCall/model_4/tf.math.sigmoid_30/Sigmoid", "op": "Sigmoid", "input": ["PartitionedCall/model_4/tf.math.add_42/Add"], "attr": {"T": {"type": "DT_FLOAT"}}}, {"name": "PartitionedCall/model_4/tf.math.multiply_135/Mul", "op": "Mul", "input": ["PartitionedCall/model_4/tf.math.add_42/Add", "PartitionedCall/model_4/tf.math.sigmoid_30/Sigmoid"], "attr": {"T": {"type": "DT_FLOAT"}}}, {"name": "PartitionedCall/model_4/lambda_1//model.13/Resize", "op": "ResizeNearestNeighbor", "input": ["PartitionedCall/model_4/tf.math.multiply_135/Mul", "PartitionedCall/model_4/lambda_1//model.13/Resize/size"], "attr": {"T": {"type": "DT_FLOAT"}, "half_pixel_centers": {"b": false}, "align_corners": {"b": false}}}, {"name": "PartitionedCall/model_4/tf.concat_7/concat", "op": "ConcatV2", "input": ["PartitionedCall/model_4/lambda_1//model.13/Resize", "PartitionedCall/model_4/tf.math.multiply_57/Mul", "PartitionedCall/model_4/tf.concat_7/concat/axis"], "attr": {"N": {"i": "2"}, "Tidx": {"type": "DT_INT32"}, "T": {"type": "DT_FLOAT"}}}, {"name": "PartitionedCall/model_4/tf.nn.convolution_31/convolution", "op": "Conv2D", "input": ["PartitionedCall/model_4/tf.concat_7/concat", "13693"], "device": "/device:CPU:0", "attr": {"strides": {"list": {"i": ["1", "1", "1", "1"]}}, "padding": {"s": "U0FNRQ=="}, "data_format": {"s": "TkhXQw=="}, "explicit_paddings": {"list": {}}, "T": {"type": "DT_FLOAT"}, "dilations": {"list": {"i": ["1", "1", "1", "1"]}}, "use_cudnn_on_gpu": {"b": true}}}, {"name": "PartitionedCall/model_4/tf.math.add_43/Add", "op": "AddV2", "input": ["PartitionedCall/model_4/tf.nn.convolution_31/convolution", "13695"], "attr": {"T": {"type": "DT_FLOAT"}}}, {"name": "PartitionedCall/model_4/tf.math.sigmoid_31/Sigmoid", "op": "Sigmoid", "input": ["PartitionedCall/model_4/tf.math.add_43/Add"], "attr": {"T": {"type": "DT_FLOAT"}}}, {"name": "PartitionedCall/model_4/tf.math.multiply_139/Mul", "op": "Mul", "input": ["PartitionedCall/model_4/tf.math.add_43/Add", "PartitionedCall/model_4/tf.math.sigmoid_31/Sigmoid"], "attr": {"T": {"type": "DT_FLOAT"}}}, {"name": "PartitionedCall/model_4/tf.strided_slice_10/StridedSlice", "op": "StridedSlice", "input": ["PartitionedCall/model_4/tf.math.multiply_139/Mul", "13709", "13711", "PartitionedCall/model_4/tf.strided_slice_10/ones_like"], "attr": {"new_axis_mask": {"i": "0"}, "end_mask": {"i": "7"}, "ellipsis_mask": {"i": "0"}, "T": {"type": "DT_FLOAT"}, "begin_mask": {"i": "15"}, "Index": {"type": "DT_INT64"}, "shrink_axis_mask": {"i": "0"}}}, {"name": "PartitionedCall/model_4/tf.strided_slice_11/StridedSlice", "op": "StridedSlice", "input": ["PartitionedCall/model_4/tf.math.multiply_139/Mul", "13697", "13699", "PartitionedCall/model_4/tf.strided_slice_11/ones_like"], "attr": {"shrink_axis_mask": {"i": "0"}, "begin_mask": {"i": "7"}, "new_axis_mask": {"i": "0"}, "ellipsis_mask": {"i": "0"}, "Index": {"type": "DT_INT64"}, "T": {"type": "DT_FLOAT"}, "end_mask": {"i": "7"}}}, {"name": "PartitionedCall/model_4/tf.nn.convolution_32/convolution", "op": "Conv2D", "input": ["PartitionedCall/model_4/tf.strided_slice_11/StridedSlice", "13701"], "device": "/device:CPU:0", "attr": {"dilations": {"list": {"i": ["1", "1", "1", "1"]}}, "explicit_paddings": {"list": {}}, "padding": {"s": "U0FNRQ=="}, "T": {"type": "DT_FLOAT"}, "use_cudnn_on_gpu": {"b": true}, "data_format": {"s": "TkhXQw=="}, "strides": {"list": {"i": ["1", "1", "1", "1"]}}}}, {"name": "PartitionedCall/model_4/tf.math.add_44/Add", "op": "AddV2", "input": ["PartitionedCall/model_4/tf.nn.convolution_32/convolution", "13703"], "attr": {"T": {"type": "DT_FLOAT"}}}, {"name": "PartitionedCall/model_4/tf.math.sigmoid_32/Sigmoid", "op": "Sigmoid", "input": ["PartitionedCall/model_4/tf.math.add_44/Add"], "attr": {"T": {"type": "DT_FLOAT"}}}, {"name": "PartitionedCall/model_4/tf.math.multiply_143/Mul", "op": "Mul", "input": ["PartitionedCall/model_4/tf.math.add_44/Add", "PartitionedCall/model_4/tf.math.sigmoid_32/Sigmoid"], "attr": {"T": {"type": "DT_FLOAT"}}}, {"name": "PartitionedCall/model_4/tf.nn.convolution_33/convolution", "op": "Conv2D", "input": ["PartitionedCall/model_4/tf.math.multiply_143/Mul", "13705"], "device": "/device:CPU:0", "attr": {"dilations": {"list": {"i": ["1", "1", "1", "1"]}}, "use_cudnn_on_gpu": {"b": true}, "strides": {"list": {"i": ["1", "1", "1", "1"]}}, "T": {"type": "DT_FLOAT"}, "data_format": {"s": "TkhXQw=="}, "padding": {"s": "U0FNRQ=="}, "explicit_paddings": {"list": {}}}}, {"name": "PartitionedCall/model_4/tf.math.add_45/Add", "op": "AddV2", "input": ["PartitionedCall/model_4/tf.nn.convolution_33/convolution", "13707"], "attr": {"T": {"type": "DT_FLOAT"}}}, {"name": "PartitionedCall/model_4/tf.math.sigmoid_33/Sigmoid", "op": "Sigmoid", "input": ["PartitionedCall/model_4/tf.math.add_45/Add"], "attr": {"T": {"type": "DT_FLOAT"}}}, {"name": "PartitionedCall/model_4/tf.math.multiply_147/Mul", "op": "Mul", "input": ["PartitionedCall/model_4/tf.math.add_45/Add", "PartitionedCall/model_4/tf.math.sigmoid_33/Sigmoid"], "attr": {"T": {"type": "DT_FLOAT"}}}, {"name": "PartitionedCall/model_4/tf.concat_8/concat", "op": "ConcatV2", "input": ["PartitionedCall/model_4/tf.strided_slice_10/StridedSlice", "PartitionedCall/model_4/tf.strided_slice_11/StridedSlice", "PartitionedCall/model_4/tf.math.multiply_147/Mul", "PartitionedCall/model_4/tf.concat_8/concat/axis"], "attr": {"T": {"type": "DT_FLOAT"}, "Tidx": {"type": "DT_INT32"}, "N": {"i": "3"}}}, {"name": "PartitionedCall/model_4/tf.nn.convolution_34/convolution", "op": "Conv2D", "input": ["PartitionedCall/model_4/tf.concat_8/concat", "13713"], "device": "/device:CPU:0", "attr": {"dilations": {"list": {"i": ["1", "1", "1", "1"]}}, "explicit_paddings": {"list": {}}, "strides": {"list": {"i": ["1", "1", "1", "1"]}}, "padding": {"s": "U0FNRQ=="}, "T": {"type": "DT_FLOAT"}, "use_cudnn_on_gpu": {"b": true}, "data_format": {"s": "TkhXQw=="}}}, {"name": "PartitionedCall/model_4/tf.math.add_46/Add", "op": "AddV2", "input": ["PartitionedCall/model_4/tf.nn.convolution_34/convolution", "13715"], "attr": {"T": {"type": "DT_FLOAT"}}}, {"name": "PartitionedCall/model_4/tf.math.sigmoid_34/Sigmoid", "op": "Sigmoid", "input": ["PartitionedCall/model_4/tf.math.add_46/Add"], "attr": {"T": {"type": "DT_FLOAT"}}}, {"name": "PartitionedCall/model_4/tf.math.multiply_151/Mul", "op": "Mul", "input": ["PartitionedCall/model_4/tf.math.add_46/Add", "PartitionedCall/model_4/tf.math.sigmoid_34/Sigmoid"], "attr": {"T": {"type": "DT_FLOAT"}}}, {"name": "PartitionedCall/model_4/tf.nn.convolution_36/convolution", "op": "Conv2D", "input": ["PartitionedCall/model_4/tf.math.multiply_151/Mul", "13787"], "device": "/device:CPU:0", "attr": {"use_cudnn_on_gpu": {"b": true}, "strides": {"list": {"i": ["1", "1", "1", "1"]}}, "data_format": {"s": "TkhXQw=="}, "dilations": {"list": {"i": ["1", "1", "1", "1"]}}, "explicit_paddings": {"list": {}}, "padding": {"s": "U0FNRQ=="}, "T": {"type": "DT_FLOAT"}}}, {"name": "PartitionedCall/model_4/tf.nn.convolution_37/convolution", "op": "Conv2D", "input": ["PartitionedCall/model_4/tf.math.multiply_151/Mul", "13785"], "device": "/device:CPU:0", "attr": {"strides": {"list": {"i": ["1", "1", "1", "1"]}}, "use_cudnn_on_gpu": {"b": true}, "data_format": {"s": "TkhXQw=="}, "padding": {"s": "U0FNRQ=="}, "T": {"type": "DT_FLOAT"}, "dilations": {"list": {"i": ["1", "1", "1", "1"]}}, "explicit_paddings": {"list": {}}}}, {"name": "PartitionedCall/model_4/tf.compat.v1.pad_5/Pad", "op": "Pad", "input": ["PartitionedCall/model_4/tf.math.multiply_151/Mul", "13717"], "attr": {"Tpaddings": {"type": "DT_INT32"}, "T": {"type": "DT_FLOAT"}}}, {"name": "PartitionedCall/model_4/tf.math.add_48/Add", "op": "AddV2", "input": ["PartitionedCall/model_4/tf.nn.convolution_36/convolution", "13799"], "attr": {"T": {"type": "DT_FLOAT"}}}, {"name": "PartitionedCall/model_4/tf.math.add_49/Add", "op": "AddV2", "input": ["PartitionedCall/model_4/tf.nn.convolution_37/convolution", "13797"], "attr": {"T": {"type": "DT_FLOAT"}}}, {"name": "PartitionedCall/model_4/tf.nn.convolution_35/convolution", "op": "Conv2D", "input": ["PartitionedCall/model_4/tf.compat.v1.pad_5/Pad", "13719"], "device": "/device:CPU:0", "attr": {"T": {"type": "DT_FLOAT"}, "strides": {"list": {"i": ["1", "2", "2", "1"]}}, "dilations": {"list": {"i": ["1", "1", "1", "1"]}}, "padding": {"s": "VkFMSUQ="}, "use_cudnn_on_gpu": {"b": true}, "explicit_paddings": {"list": {}}, "data_format": {"s": "TkhXQw=="}}}, {"name": "PartitionedCall/model_4/tf.math.sigmoid_36/Sigmoid", "op": "Sigmoid", "input": ["PartitionedCall/model_4/tf.math.add_48/Add"], "attr": {"T": {"type": "DT_FLOAT"}}}, {"name": "PartitionedCall/model_4/tf.math.sigmoid_37/Sigmoid", "op": "Sigmoid", "input": ["PartitionedCall/model_4/tf.math.add_49/Add"], "attr": {"T": {"type": "DT_FLOAT"}}}, {"name": "PartitionedCall/model_4/tf.math.add_47/Add", "op": "AddV2", "input": ["PartitionedCall/model_4/tf.nn.convolution_35/convolution", "13721"], "attr": {"T": {"type": "DT_FLOAT"}}}, {"name": "PartitionedCall/model_4/tf.math.multiply_159/Mul", "op": "Mul", "input": ["PartitionedCall/model_4/tf.math.add_48/Add", "PartitionedCall/model_4/tf.math.sigmoid_36/Sigmoid"], "attr": {"T": {"type": "DT_FLOAT"}}}, {"name": "PartitionedCall/model_4/tf.math.multiply_163/Mul", "op": "Mul", "input": ["PartitionedCall/model_4/tf.math.add_49/Add", "PartitionedCall/model_4/tf.math.sigmoid_37/Sigmoid"], "attr": {"T": {"type": "DT_FLOAT"}}}, {"name": "PartitionedCall/model_4/tf.math.sigmoid_35/Sigmoid", "op": "Sigmoid", "input": ["PartitionedCall/model_4/tf.math.add_47/Add"], "attr": {"T": {"type": "DT_FLOAT"}}}, {"name": "PartitionedCall/model_4/tf.nn.convolution_38/convolution", "op": "Conv2D", "input": ["PartitionedCall/model_4/tf.math.multiply_159/Mul", "13811"], "device": "/device:CPU:0", "attr": {"dilations": {"list": {"i": ["1", "1", "1", "1"]}}, "data_format": {"s": "TkhXQw=="}, "T": {"type": "DT_FLOAT"}, "explicit_paddings": {"list": {}}, "strides": {"list": {"i": ["1", "1", "1", "1"]}}, "use_cudnn_on_gpu": {"b": true}, "padding": {"s": "U0FNRQ=="}}}, {"name": "PartitionedCall/model_4/tf.nn.convolution_39/convolution", "op": "Conv2D", "input": ["PartitionedCall/model_4/tf.math.multiply_163/Mul", "13809"], "device": "/device:CPU:0", "attr": {"data_format": {"s": "TkhXQw=="}, "explicit_paddings": {"list": {}}, "strides": {"list": {"i": ["1", "1", "1", "1"]}}, "dilations": {"list": {"i": ["1", "1", "1", "1"]}}, "use_cudnn_on_gpu": {"b": true}, "T": {"type": "DT_FLOAT"}, "padding": {"s": "U0FNRQ=="}}}, {"name": "PartitionedCall/model_4/tf.math.multiply_155/Mul", "op": "Mul", "input": ["PartitionedCall/model_4/tf.math.add_47/Add", "PartitionedCall/model_4/tf.math.sigmoid_35/Sigmoid"], "attr": {"T": {"type": "DT_FLOAT"}}}, {"name": "PartitionedCall/model_4/tf.math.add_50/Add", "op": "AddV2", "input": ["PartitionedCall/model_4/tf.nn.convolution_38/convolution", "13823"], "attr": {"T": {"type": "DT_FLOAT"}}}, {"name": "PartitionedCall/model_4/tf.math.add_51/Add", "op": "AddV2", "input": ["PartitionedCall/model_4/tf.nn.convolution_39/convolution", "13821"], "attr": {"T": {"type": "DT_FLOAT"}}}, {"name": "PartitionedCall/model_4/tf.concat_9/concat", "op": "ConcatV2", "input": ["PartitionedCall/model_4/tf.math.multiply_155/Mul", "PartitionedCall/model_4/tf.math.multiply_135/Mul", "PartitionedCall/model_4/tf.concat_9/concat/axis"], "attr": {"N": {"i": "2"}, "T": {"type": "DT_FLOAT"}, "Tidx": {"type": "DT_INT32"}}}, {"name": "PartitionedCall/model_4/tf.math.sigmoid_38/Sigmoid", "op": "Sigmoid", "input": ["PartitionedCall/model_4/tf.math.add_50/Add"], "attr": {"T": {"type": "DT_FLOAT"}}}, {"name": "PartitionedCall/model_4/tf.math.sigmoid_39/Sigmoid", "op": "Sigmoid", "input": ["PartitionedCall/model_4/tf.math.add_51/Add"], "attr": {"T": {"type": "DT_FLOAT"}}}, {"name": "PartitionedCall/model_4/tf.nn.convolution_40/convolution", "op": "Conv2D", "input": ["PartitionedCall/model_4/tf.concat_9/concat", "13723"], "device": "/device:CPU:0", "attr": {"data_format": {"s": "TkhXQw=="}, "explicit_paddings": {"list": {}}, "dilations": {"list": {"i": ["1", "1", "1", "1"]}}, "strides": {"list": {"i": ["1", "1", "1", "1"]}}, "T": {"type": "DT_FLOAT"}, "padding": {"s": "U0FNRQ=="}, "use_cudnn_on_gpu": {"b": true}}}, {"name": "PartitionedCall/model_4/tf.math.multiply_167/Mul", "op": "Mul", "input": ["PartitionedCall/model_4/tf.math.add_50/Add", "PartitionedCall/model_4/tf.math.sigmoid_38/Sigmoid"], "attr": {"T": {"type": "DT_FLOAT"}}}, {"name": "PartitionedCall/model_4/tf.math.multiply_171/Mul", "op": "Mul", "input": ["PartitionedCall/model_4/tf.math.add_51/Add", "PartitionedCall/model_4/tf.math.sigmoid_39/Sigmoid"], "attr": {"T": {"type": "DT_FLOAT"}}}, {"name": "PartitionedCall/model_4/tf.math.add_52/Add", "op": "AddV2", "input": ["PartitionedCall/model_4/tf.nn.convolution_40/convolution", "13725"], "attr": {"T": {"type": "DT_FLOAT"}}}, {"name": "PartitionedCall/model_4/tf.nn.convolution_41/convolution", "op": "Conv2D", "input": ["PartitionedCall/model_4/tf.math.multiply_167/Mul", "13835"], "device": "/device:CPU:0", "attr": {"data_format": {"s": "TkhXQw=="}, "strides": {"list": {"i": ["1", "1", "1", "1"]}}, "T": {"type": "DT_FLOAT"}, "dilations": {"list": {"i": ["1", "1", "1", "1"]}}, "use_cudnn_on_gpu": {"b": true}, "explicit_paddings": {"list": {}}, "padding": {"s": "U0FNRQ=="}}}, {"name": "PartitionedCall/model_4/tf.nn.convolution_42/convolution", "op": "Conv2D", "input": ["PartitionedCall/model_4/tf.math.multiply_171/Mul", "13833"], "device": "/device:CPU:0", "attr": {"strides": {"list": {"i": ["1", "1", "1", "1"]}}, "padding": {"s": "U0FNRQ=="}, "dilations": {"list": {"i": ["1", "1", "1", "1"]}}, "use_cudnn_on_gpu": {"b": true}, "explicit_paddings": {"list": {}}, "data_format": {"s": "TkhXQw=="}, "T": {"type": "DT_FLOAT"}}}, {"name": "PartitionedCall/model_4/tf.math.sigmoid_40/Sigmoid", "op": "Sigmoid", "input": ["PartitionedCall/model_4/tf.math.add_52/Add"], "attr": {"T": {"type": "DT_FLOAT"}}}, {"name": "PartitionedCall/model_4/tf.math.add_53/Add", "op": "AddV2", "input": ["PartitionedCall/model_4/tf.nn.convolution_41/convolution", "13845"], "attr": {"T": {"type": "DT_FLOAT"}}}, {"name": "PartitionedCall/model_4/tf.math.add_54/Add", "op": "AddV2", "input": ["PartitionedCall/model_4/tf.nn.convolution_42/convolution", "13847"], "attr": {"T": {"type": "DT_FLOAT"}}}, {"name": "PartitionedCall/model_4/tf.math.multiply_175/Mul", "op": "Mul", "input": ["PartitionedCall/model_4/tf.math.add_52/Add", "PartitionedCall/model_4/tf.math.sigmoid_40/Sigmoid"], "attr": {"T": {"type": "DT_FLOAT"}}}, {"name": "PartitionedCall/model_4/tf.concat_10/concat", "op": "ConcatV2", "input": ["PartitionedCall/model_4/tf.math.add_53/Add", "PartitionedCall/model_4/tf.math.add_54/Add", "PartitionedCall/model_4/tf.concat_10/concat/axis"], "attr": {"T": {"type": "DT_FLOAT"}, "N": {"i": "2"}, "Tidx": {"type": "DT_INT32"}}}, {"name": "PartitionedCall/model_4/tf.strided_slice_12/StridedSlice", "op": "StridedSlice", "input": ["PartitionedCall/model_4/tf.math.multiply_175/Mul", "13739", "13741", "PartitionedCall/model_4/tf.strided_slice_12/ones_like"], "attr": {"Index": {"type": "DT_INT64"}, "ellipsis_mask": {"i": "0"}, "T": {"type": "DT_FLOAT"}, "shrink_axis_mask": {"i": "0"}, "begin_mask": {"i": "15"}, "end_mask": {"i": "7"}, "new_axis_mask": {"i": "0"}}}, {"name": "PartitionedCall/model_4/tf.strided_slice_13/StridedSlice", "op": "StridedSlice", "input": ["PartitionedCall/model_4/tf.math.multiply_175/Mul", "13727", "13729", "PartitionedCall/model_4/tf.strided_slice_13/ones_like"], "attr": {"new_axis_mask": {"i": "0"}, "Index": {"type": "DT_INT64"}, "begin_mask": {"i": "7"}, "ellipsis_mask": {"i": "0"}, "T": {"type": "DT_FLOAT"}, "shrink_axis_mask": {"i": "0"}, "end_mask": {"i": "7"}}}, {"name": "PartitionedCall/model_4/tf.compat.v1.transpose/transpose", "op": "Transpose", "input": ["PartitionedCall/model_4/tf.concat_10/concat", "PartitionedCall/model_4/tf.compat.v1.transpose/transpose/perm"], "attr": {"Tperm": {"type": "DT_INT32"}, "T": {"type": "DT_FLOAT"}}}, {"name": "PartitionedCall/model_4/tf.nn.convolution_43/convolution", "op": "Conv2D", "input": ["PartitionedCall/model_4/tf.strided_slice_13/StridedSlice", "13731"], "device": "/device:CPU:0", "attr": {"strides": {"list": {"i": ["1", "1", "1", "1"]}}, "use_cudnn_on_gpu": {"b": true}, "dilations": {"list": {"i": ["1", "1", "1", "1"]}}, "data_format": {"s": "TkhXQw=="}, "padding": {"s": "U0FNRQ=="}, "T": {"type": "DT_FLOAT"}, "explicit_paddings": {"list": {}}}}, {"name": "PartitionedCall/model_4/tf.reshape/Reshape", "op": "Reshape", "input": ["PartitionedCall/model_4/tf.compat.v1.transpose/transpose", "PartitionedCall/model_4/tf.reshape/Reshape/shape"], "attr": {"Tshape": {"type": "DT_INT32"}, "T": {"type": "DT_FLOAT"}}}, {"name": "PartitionedCall/model_4/tf.math.add_55/Add", "op": "AddV2", "input": ["PartitionedCall/model_4/tf.nn.convolution_43/convolution", "13733"], "attr": {"T": {"type": "DT_FLOAT"}}}, {"name": "PartitionedCall/model_4/tf.math.sigmoid_41/Sigmoid", "op": "Sigmoid", "input": ["PartitionedCall/model_4/tf.math.add_55/Add"], "attr": {"T": {"type": "DT_FLOAT"}}}, {"name": "PartitionedCall/model_4/tf.math.multiply_179/Mul", "op": "Mul", "input": ["PartitionedCall/model_4/tf.math.add_55/Add", "PartitionedCall/model_4/tf.math.sigmoid_41/Sigmoid"], "attr": {"T": {"type": "DT_FLOAT"}}}, {"name": "PartitionedCall/model_4/tf.nn.convolution_44/convolution", "op": "Conv2D", "input": ["PartitionedCall/model_4/tf.math.multiply_179/Mul", "13735"], "device": "/device:CPU:0", "attr": {"explicit_paddings": {"list": {}}, "padding": {"s": "U0FNRQ=="}, "dilations": {"list": {"i": ["1", "1", "1", "1"]}}, "use_cudnn_on_gpu": {"b": true}, "data_format": {"s": "TkhXQw=="}, "strides": {"list": {"i": ["1", "1", "1", "1"]}}, "T": {"type": "DT_FLOAT"}}}, {"name": "PartitionedCall/model_4/tf.math.add_56/Add", "op": "AddV2", "input": ["PartitionedCall/model_4/tf.nn.convolution_44/convolution", "13737"], "attr": {"T": {"type": "DT_FLOAT"}}}, {"name": "PartitionedCall/model_4/tf.math.sigmoid_42/Sigmoid", "op": "Sigmoid", "input": ["PartitionedCall/model_4/tf.math.add_56/Add"], "attr": {"T": {"type": "DT_FLOAT"}}}, {"name": "PartitionedCall/model_4/tf.math.multiply_183/Mul", "op": "Mul", "input": ["PartitionedCall/model_4/tf.math.add_56/Add", "PartitionedCall/model_4/tf.math.sigmoid_42/Sigmoid"], "attr": {"T": {"type": "DT_FLOAT"}}}, {"name": "PartitionedCall/model_4/tf.concat_11/concat", "op": "ConcatV2", "input": ["PartitionedCall/model_4/tf.strided_slice_12/StridedSlice", "PartitionedCall/model_4/tf.strided_slice_13/StridedSlice", "PartitionedCall/model_4/tf.math.multiply_183/Mul", "PartitionedCall/model_4/tf.concat_11/concat/axis"], "attr": {"N": {"i": "3"}, "T": {"type": "DT_FLOAT"}, "Tidx": {"type": "DT_INT32"}}}, {"name": "PartitionedCall/model_4/tf.nn.convolution_45/convolution", "op": "Conv2D", "input": ["PartitionedCall/model_4/tf.concat_11/concat", "13743"], "device": "/device:CPU:0", "attr": {"data_format": {"s": "TkhXQw=="}, "padding": {"s": "U0FNRQ=="}, "dilations": {"list": {"i": ["1", "1", "1", "1"]}}, "use_cudnn_on_gpu": {"b": true}, "T": {"type": "DT_FLOAT"}, "strides": {"list": {"i": ["1", "1", "1", "1"]}}, "explicit_paddings": {"list": {}}}}, {"name": "PartitionedCall/model_4/tf.math.add_57/Add", "op": "AddV2", "input": ["PartitionedCall/model_4/tf.nn.convolution_45/convolution", "13745"], "attr": {"T": {"type": "DT_FLOAT"}}}, {"name": "PartitionedCall/model_4/tf.math.sigmoid_43/Sigmoid", "op": "Sigmoid", "input": ["PartitionedCall/model_4/tf.math.add_57/Add"], "attr": {"T": {"type": "DT_FLOAT"}}}, {"name": "PartitionedCall/model_4/tf.math.multiply_187/Mul", "op": "Mul", "input": ["PartitionedCall/model_4/tf.math.add_57/Add", "PartitionedCall/model_4/tf.math.sigmoid_43/Sigmoid"], "attr": {"T": {"type": "DT_FLOAT"}}}, {"name": "PartitionedCall/model_4/tf.nn.convolution_47/convolution", "op": "Conv2D", "input": ["PartitionedCall/model_4/tf.math.multiply_187/Mul", "13783"], "device": "/device:CPU:0", "attr": {"T": {"type": "DT_FLOAT"}, "explicit_paddings": {"list": {}}, "padding": {"s": "U0FNRQ=="}, "strides": {"list": {"i": ["1", "1", "1", "1"]}}, "dilations": {"list": {"i": ["1", "1", "1", "1"]}}, "use_cudnn_on_gpu": {"b": true}, "data_format": {"s": "TkhXQw=="}}}, {"name": "PartitionedCall/model_4/tf.nn.convolution_48/convolution", "op": "Conv2D", "input": ["PartitionedCall/model_4/tf.math.multiply_187/Mul", "13781"], "device": "/device:CPU:0", "attr": {"data_format": {"s": "TkhXQw=="}, "explicit_paddings": {"list": {}}, "padding": {"s": "U0FNRQ=="}, "T": {"type": "DT_FLOAT"}, "dilations": {"list": {"i": ["1", "1", "1", "1"]}}, "use_cudnn_on_gpu": {"b": true}, "strides": {"list": {"i": ["1", "1", "1", "1"]}}}}, {"name": "PartitionedCall/model_4/tf.compat.v1.pad_6/Pad", "op": "Pad", "input": ["PartitionedCall/model_4/tf.math.multiply_187/Mul", "13747"], "attr": {"Tpaddings": {"type": "DT_INT32"}, "T": {"type": "DT_FLOAT"}}}, {"name": "PartitionedCall/model_4/tf.math.add_59/Add", "op": "AddV2", "input": ["PartitionedCall/model_4/tf.nn.convolution_47/convolution", "13795"], "attr": {"T": {"type": "DT_FLOAT"}}}, {"name": "PartitionedCall/model_4/tf.math.add_60/Add", "op": "AddV2", "input": ["PartitionedCall/model_4/tf.nn.convolution_48/convolution", "13793"], "attr": {"T": {"type": "DT_FLOAT"}}}, {"name": "PartitionedCall/model_4/tf.nn.convolution_46/convolution", "op": "Conv2D", "input": ["PartitionedCall/model_4/tf.compat.v1.pad_6/Pad", "13749"], "device": "/device:CPU:0", "attr": {"T": {"type": "DT_FLOAT"}, "data_format": {"s": "TkhXQw=="}, "use_cudnn_on_gpu": {"b": true}, "strides": {"list": {"i": ["1", "2", "2", "1"]}}, "padding": {"s": "VkFMSUQ="}, "explicit_paddings": {"list": {}}, "dilations": {"list": {"i": ["1", "1", "1", "1"]}}}}, {"name": "PartitionedCall/model_4/tf.math.sigmoid_45/Sigmoid", "op": "Sigmoid", "input": ["PartitionedCall/model_4/tf.math.add_59/Add"], "attr": {"T": {"type": "DT_FLOAT"}}}, {"name": "PartitionedCall/model_4/tf.math.sigmoid_46/Sigmoid", "op": "Sigmoid", "input": ["PartitionedCall/model_4/tf.math.add_60/Add"], "attr": {"T": {"type": "DT_FLOAT"}}}, {"name": "PartitionedCall/model_4/tf.math.add_58/Add", "op": "AddV2", "input": ["PartitionedCall/model_4/tf.nn.convolution_46/convolution", "13751"], "attr": {"T": {"type": "DT_FLOAT"}}}, {"name": "PartitionedCall/model_4/tf.math.multiply_195/Mul", "op": "Mul", "input": ["PartitionedCall/model_4/tf.math.add_59/Add", "PartitionedCall/model_4/tf.math.sigmoid_45/Sigmoid"], "attr": {"T": {"type": "DT_FLOAT"}}}, {"name": "PartitionedCall/model_4/tf.math.multiply_199/Mul", "op": "Mul", "input": ["PartitionedCall/model_4/tf.math.add_60/Add", "PartitionedCall/model_4/tf.math.sigmoid_46/Sigmoid"], "attr": {"T": {"type": "DT_FLOAT"}}}, {"name": "PartitionedCall/model_4/tf.math.sigmoid_44/Sigmoid", "op": "Sigmoid", "input": ["PartitionedCall/model_4/tf.math.add_58/Add"], "attr": {"T": {"type": "DT_FLOAT"}}}, {"name": "PartitionedCall/model_4/tf.nn.convolution_49/convolution", "op": "Conv2D", "input": ["PartitionedCall/model_4/tf.math.multiply_195/Mul", "13807"], "device": "/device:CPU:0", "attr": {"explicit_paddings": {"list": {}}, "strides": {"list": {"i": ["1", "1", "1", "1"]}}, "use_cudnn_on_gpu": {"b": true}, "padding": {"s": "U0FNRQ=="}, "dilations": {"list": {"i": ["1", "1", "1", "1"]}}, "data_format": {"s": "TkhXQw=="}, "T": {"type": "DT_FLOAT"}}}, {"name": "PartitionedCall/model_4/tf.nn.convolution_50/convolution", "op": "Conv2D", "input": ["PartitionedCall/model_4/tf.math.multiply_199/Mul", "13805"], "device": "/device:CPU:0", "attr": {"strides": {"list": {"i": ["1", "1", "1", "1"]}}, "dilations": {"list": {"i": ["1", "1", "1", "1"]}}, "T": {"type": "DT_FLOAT"}, "data_format": {"s": "TkhXQw=="}, "padding": {"s": "U0FNRQ=="}, "use_cudnn_on_gpu": {"b": true}, "explicit_paddings": {"list": {}}}}, {"name": "PartitionedCall/model_4/tf.math.multiply_191/Mul", "op": "Mul", "input": ["PartitionedCall/model_4/tf.math.add_58/Add", "PartitionedCall/model_4/tf.math.sigmoid_44/Sigmoid"], "attr": {"T": {"type": "DT_FLOAT"}}}, {"name": "PartitionedCall/model_4/tf.math.add_61/Add", "op": "AddV2", "input": ["PartitionedCall/model_4/tf.nn.convolution_49/convolution", "13819"], "attr": {"T": {"type": "DT_FLOAT"}}}, {"name": "PartitionedCall/model_4/tf.math.add_62/Add", "op": "AddV2", "input": ["PartitionedCall/model_4/tf.nn.convolution_50/convolution", "13817"], "attr": {"T": {"type": "DT_FLOAT"}}}, {"name": "PartitionedCall/model_4/tf.concat_12/concat", "op": "ConcatV2", "input": ["PartitionedCall/model_4/tf.math.multiply_191/Mul", "PartitionedCall/model_4/tf.math.multiply_119/Mul", "PartitionedCall/model_4/tf.concat_12/concat/axis"], "attr": {"T": {"type": "DT_FLOAT"}, "N": {"i": "2"}, "Tidx": {"type": "DT_INT32"}}}, {"name": "PartitionedCall/model_4/tf.math.sigmoid_47/Sigmoid", "op": "Sigmoid", "input": ["PartitionedCall/model_4/tf.math.add_61/Add"], "attr": {"T": {"type": "DT_FLOAT"}}}, {"name": "PartitionedCall/model_4/tf.math.sigmoid_48/Sigmoid", "op": "Sigmoid", "input": ["PartitionedCall/model_4/tf.math.add_62/Add"], "attr": {"T": {"type": "DT_FLOAT"}}}, {"name": "PartitionedCall/model_4/tf.nn.convolution_51/convolution", "op": "Conv2D", "input": ["PartitionedCall/model_4/tf.concat_12/concat", "13753"], "device": "/device:CPU:0", "attr": {"dilations": {"list": {"i": ["1", "1", "1", "1"]}}, "use_cudnn_on_gpu": {"b": true}, "T": {"type": "DT_FLOAT"}, "explicit_paddings": {"list": {}}, "strides": {"list": {"i": ["1", "1", "1", "1"]}}, "padding": {"s": "U0FNRQ=="}, "data_format": {"s": "TkhXQw=="}}}, {"name": "PartitionedCall/model_4/tf.math.multiply_203/Mul", "op": "Mul", "input": ["PartitionedCall/model_4/tf.math.add_61/Add", "PartitionedCall/model_4/tf.math.sigmoid_47/Sigmoid"], "attr": {"T": {"type": "DT_FLOAT"}}}, {"name": "PartitionedCall/model_4/tf.math.multiply_207/Mul", "op": "Mul", "input": ["PartitionedCall/model_4/tf.math.add_62/Add", "PartitionedCall/model_4/tf.math.sigmoid_48/Sigmoid"], "attr": {"T": {"type": "DT_FLOAT"}}}, {"name": "PartitionedCall/model_4/tf.math.add_63/Add", "op": "AddV2", "input": ["PartitionedCall/model_4/tf.nn.convolution_51/convolution", "13755"], "attr": {"T": {"type": "DT_FLOAT"}}}, {"name": "PartitionedCall/model_4/tf.nn.convolution_52/convolution", "op": "Conv2D", "input": ["PartitionedCall/model_4/tf.math.multiply_203/Mul", "13831"], "device": "/device:CPU:0", "attr": {"dilations": {"list": {"i": ["1", "1", "1", "1"]}}, "strides": {"list": {"i": ["1", "1", "1", "1"]}}, "explicit_paddings": {"list": {}}, "T": {"type": "DT_FLOAT"}, "padding": {"s": "U0FNRQ=="}, "use_cudnn_on_gpu": {"b": true}, "data_format": {"s": "TkhXQw=="}}}, {"name": "PartitionedCall/model_4/tf.nn.convolution_53/convolution", "op": "Conv2D", "input": ["PartitionedCall/model_4/tf.math.multiply_207/Mul", "13829"], "device": "/device:CPU:0", "attr": {"strides": {"list": {"i": ["1", "1", "1", "1"]}}, "explicit_paddings": {"list": {}}, "data_format": {"s": "TkhXQw=="}, "dilations": {"list": {"i": ["1", "1", "1", "1"]}}, "use_cudnn_on_gpu": {"b": true}, "padding": {"s": "U0FNRQ=="}, "T": {"type": "DT_FLOAT"}}}, {"name": "PartitionedCall/model_4/tf.math.sigmoid_49/Sigmoid", "op": "Sigmoid", "input": ["PartitionedCall/model_4/tf.math.add_63/Add"], "attr": {"T": {"type": "DT_FLOAT"}}}, {"name": "PartitionedCall/model_4/tf.math.add_64/Add", "op": "AddV2", "input": ["PartitionedCall/model_4/tf.nn.convolution_52/convolution", "13841"], "attr": {"T": {"type": "DT_FLOAT"}}}, {"name": "PartitionedCall/model_4/tf.math.add_65/Add", "op": "AddV2", "input": ["PartitionedCall/model_4/tf.nn.convolution_53/convolution", "13843"], "attr": {"T": {"type": "DT_FLOAT"}}}, {"name": "PartitionedCall/model_4/tf.math.multiply_211/Mul", "op": "Mul", "input": ["PartitionedCall/model_4/tf.math.add_63/Add", "PartitionedCall/model_4/tf.math.sigmoid_49/Sigmoid"], "attr": {"T": {"type": "DT_FLOAT"}}}, {"name": "PartitionedCall/model_4/tf.concat_13/concat", "op": "ConcatV2", "input": ["PartitionedCall/model_4/tf.math.add_64/Add", "PartitionedCall/model_4/tf.math.add_65/Add", "PartitionedCall/model_4/tf.concat_13/concat/axis"], "attr": {"Tidx": {"type": "DT_INT32"}, "N": {"i": "2"}, "T": {"type": "DT_FLOAT"}}}, {"name": "PartitionedCall/model_4/tf.strided_slice_14/StridedSlice", "op": "StridedSlice", "input": ["PartitionedCall/model_4/tf.math.multiply_211/Mul", "13769", "13771", "PartitionedCall/model_4/tf.strided_slice_14/ones_like"], "attr": {"ellipsis_mask": {"i": "0"}, "shrink_axis_mask": {"i": "0"}, "end_mask": {"i": "7"}, "new_axis_mask": {"i": "0"}, "begin_mask": {"i": "15"}, "Index": {"type": "DT_INT64"}, "T": {"type": "DT_FLOAT"}}}, {"name": "PartitionedCall/model_4/tf.strided_slice_15/StridedSlice", "op": "StridedSlice", "input": ["PartitionedCall/model_4/tf.math.multiply_211/Mul", "13757", "13759", "PartitionedCall/model_4/tf.strided_slice_15/ones_like"], "attr": {"begin_mask": {"i": "7"}, "new_axis_mask": {"i": "0"}, "T": {"type": "DT_FLOAT"}, "Index": {"type": "DT_INT64"}, "ellipsis_mask": {"i": "0"}, "shrink_axis_mask": {"i": "0"}, "end_mask": {"i": "7"}}}, {"name": "PartitionedCall/model_4/tf.compat.v1.transpose_1/transpose", "op": "Transpose", "input": ["PartitionedCall/model_4/tf.concat_13/concat", "PartitionedCall/model_4/tf.compat.v1.transpose_1/transpose/perm"], "attr": {"T": {"type": "DT_FLOAT"}, "Tperm": {"type": "DT_INT32"}}}, {"name": "PartitionedCall/model_4/tf.nn.convolution_54/convolution", "op": "Conv2D", "input": ["PartitionedCall/model_4/tf.strided_slice_15/StridedSlice", "13761"], "device": "/device:CPU:0", "attr": {"strides": {"list": {"i": ["1", "1", "1", "1"]}}, "padding": {"s": "U0FNRQ=="}, "data_format": {"s": "TkhXQw=="}, "use_cudnn_on_gpu": {"b": true}, "dilations": {"list": {"i": ["1", "1", "1", "1"]}}, "explicit_paddings": {"list": {}}, "T": {"type": "DT_FLOAT"}}}, {"name": "PartitionedCall/model_4/tf.reshape_1/Reshape", "op": "Reshape", "input": ["PartitionedCall/model_4/tf.compat.v1.transpose_1/transpose", "PartitionedCall/model_4/tf.reshape_1/Reshape/shape"], "attr": {"Tshape": {"type": "DT_INT32"}, "T": {"type": "DT_FLOAT"}}}, {"name": "PartitionedCall/model_4/tf.math.add_66/Add", "op": "AddV2", "input": ["PartitionedCall/model_4/tf.nn.convolution_54/convolution", "13763"], "attr": {"T": {"type": "DT_FLOAT"}}}, {"name": "PartitionedCall/model_4/tf.math.sigmoid_50/Sigmoid", "op": "Sigmoid", "input": ["PartitionedCall/model_4/tf.math.add_66/Add"], "attr": {"T": {"type": "DT_FLOAT"}}}, {"name": "PartitionedCall/model_4/tf.math.multiply_215/Mul", "op": "Mul", "input": ["PartitionedCall/model_4/tf.math.add_66/Add", "PartitionedCall/model_4/tf.math.sigmoid_50/Sigmoid"], "attr": {"T": {"type": "DT_FLOAT"}}}, {"name": "PartitionedCall/model_4/tf.nn.convolution_55/convolution", "op": "Conv2D", "input": ["PartitionedCall/model_4/tf.math.multiply_215/Mul", "13765"], "device": "/device:CPU:0", "attr": {"data_format": {"s": "TkhXQw=="}, "strides": {"list": {"i": ["1", "1", "1", "1"]}}, "T": {"type": "DT_FLOAT"}, "dilations": {"list": {"i": ["1", "1", "1", "1"]}}, "padding": {"s": "U0FNRQ=="}, "use_cudnn_on_gpu": {"b": true}, "explicit_paddings": {"list": {}}}}, {"name": "PartitionedCall/model_4/tf.math.add_67/Add", "op": "AddV2", "input": ["PartitionedCall/model_4/tf.nn.convolution_55/convolution", "13767"], "attr": {"T": {"type": "DT_FLOAT"}}}, {"name": "PartitionedCall/model_4/tf.math.sigmoid_51/Sigmoid", "op": "Sigmoid", "input": ["PartitionedCall/model_4/tf.math.add_67/Add"], "attr": {"T": {"type": "DT_FLOAT"}}}, {"name": "PartitionedCall/model_4/tf.math.multiply_219/Mul", "op": "Mul", "input": ["PartitionedCall/model_4/tf.math.add_67/Add", "PartitionedCall/model_4/tf.math.sigmoid_51/Sigmoid"], "attr": {"T": {"type": "DT_FLOAT"}}}, {"name": "PartitionedCall/model_4/tf.concat_14/concat", "op": "ConcatV2", "input": ["PartitionedCall/model_4/tf.strided_slice_14/StridedSlice", "PartitionedCall/model_4/tf.strided_slice_15/StridedSlice", "PartitionedCall/model_4/tf.math.multiply_219/Mul", "PartitionedCall/model_4/tf.concat_14/concat/axis"], "attr": {"Tidx": {"type": "DT_INT32"}, "N": {"i": "3"}, "T": {"type": "DT_FLOAT"}}}, {"name": "PartitionedCall/model_4/tf.nn.convolution_56/convolution", "op": "Conv2D", "input": ["PartitionedCall/model_4/tf.concat_14/concat", "13773"], "device": "/device:CPU:0", "attr": {"strides": {"list": {"i": ["1", "1", "1", "1"]}}, "use_cudnn_on_gpu": {"b": true}, "data_format": {"s": "TkhXQw=="}, "T": {"type": "DT_FLOAT"}, "dilations": {"list": {"i": ["1", "1", "1", "1"]}}, "explicit_paddings": {"list": {}}, "padding": {"s": "U0FNRQ=="}}}, {"name": "PartitionedCall/model_4/tf.math.add_68/Add", "op": "AddV2", "input": ["PartitionedCall/model_4/tf.nn.convolution_56/convolution", "13775"], "attr": {"T": {"type": "DT_FLOAT"}}}, {"name": "PartitionedCall/model_4/tf.math.sigmoid_52/Sigmoid", "op": "Sigmoid", "input": ["PartitionedCall/model_4/tf.math.add_68/Add"], "attr": {"T": {"type": "DT_FLOAT"}}}, {"name": "PartitionedCall/model_4/tf.math.multiply_223/Mul", "op": "Mul", "input": ["PartitionedCall/model_4/tf.math.add_68/Add", "PartitionedCall/model_4/tf.math.sigmoid_52/Sigmoid"], "attr": {"T": {"type": "DT_FLOAT"}}}, {"name": "PartitionedCall/model_4/tf.nn.convolution_57/convolution", "op": "Conv2D", "input": ["PartitionedCall/model_4/tf.math.multiply_223/Mul", "13779"], "device": "/device:CPU:0", "attr": {"dilations": {"list": {"i": ["1", "1", "1", "1"]}}, "use_cudnn_on_gpu": {"b": true}, "explicit_paddings": {"list": {}}, "T": {"type": "DT_FLOAT"}, "strides": {"list": {"i": ["1", "1", "1", "1"]}}, "padding": {"s": "U0FNRQ=="}, "data_format": {"s": "TkhXQw=="}}}, {"name": "PartitionedCall/model_4/tf.nn.convolution_58/convolution", "op": "Conv2D", "input": ["PartitionedCall/model_4/tf.math.multiply_223/Mul", "13777"], "device": "/device:CPU:0", "attr": {"T": {"type": "DT_FLOAT"}, "strides": {"list": {"i": ["1", "1", "1", "1"]}}, "data_format": {"s": "TkhXQw=="}, "use_cudnn_on_gpu": {"b": true}, "dilations": {"list": {"i": ["1", "1", "1", "1"]}}, "padding": {"s": "U0FNRQ=="}, "explicit_paddings": {"list": {}}}}, {"name": "PartitionedCall/model_4/tf.math.add_69/Add", "op": "AddV2", "input": ["PartitionedCall/model_4/tf.nn.convolution_57/convolution", "13791"], "attr": {"T": {"type": "DT_FLOAT"}}}, {"name": "PartitionedCall/model_4/tf.math.add_70/Add", "op": "AddV2", "input": ["PartitionedCall/model_4/tf.nn.convolution_58/convolution", "13789"], "attr": {"T": {"type": "DT_FLOAT"}}}, {"name": "PartitionedCall/model_4/tf.math.sigmoid_53/Sigmoid", "op": "Sigmoid", "input": ["PartitionedCall/model_4/tf.math.add_69/Add"], "attr": {"T": {"type": "DT_FLOAT"}}}, {"name": "PartitionedCall/model_4/tf.math.sigmoid_54/Sigmoid", "op": "Sigmoid", "input": ["PartitionedCall/model_4/tf.math.add_70/Add"], "attr": {"T": {"type": "DT_FLOAT"}}}, {"name": "PartitionedCall/model_4/tf.math.multiply_227/Mul", "op": "Mul", "input": ["PartitionedCall/model_4/tf.math.add_69/Add", "PartitionedCall/model_4/tf.math.sigmoid_53/Sigmoid"], "attr": {"T": {"type": "DT_FLOAT"}}}, {"name": "PartitionedCall/model_4/tf.math.multiply_231/Mul", "op": "Mul", "input": ["PartitionedCall/model_4/tf.math.add_70/Add", "PartitionedCall/model_4/tf.math.sigmoid_54/Sigmoid"], "attr": {"T": {"type": "DT_FLOAT"}}}, {"name": "PartitionedCall/model_4/tf.nn.convolution_59/convolution", "op": "Conv2D", "input": ["PartitionedCall/model_4/tf.math.multiply_227/Mul", "13803"], "device": "/device:CPU:0", "attr": {"use_cudnn_on_gpu": {"b": true}, "dilations": {"list": {"i": ["1", "1", "1", "1"]}}, "strides": {"list": {"i": ["1", "1", "1", "1"]}}, "explicit_paddings": {"list": {}}, "T": {"type": "DT_FLOAT"}, "data_format": {"s": "TkhXQw=="}, "padding": {"s": "U0FNRQ=="}}}, {"name": "PartitionedCall/model_4/tf.nn.convolution_60/convolution", "op": "Conv2D", "input": ["PartitionedCall/model_4/tf.math.multiply_231/Mul", "13801"], "device": "/device:CPU:0", "attr": {"explicit_paddings": {"list": {}}, "data_format": {"s": "TkhXQw=="}, "strides": {"list": {"i": ["1", "1", "1", "1"]}}, "dilations": {"list": {"i": ["1", "1", "1", "1"]}}, "use_cudnn_on_gpu": {"b": true}, "padding": {"s": "U0FNRQ=="}, "T": {"type": "DT_FLOAT"}}}, {"name": "PartitionedCall/model_4/tf.math.add_71/Add", "op": "AddV2", "input": ["PartitionedCall/model_4/tf.nn.convolution_59/convolution", "13815"], "attr": {"T": {"type": "DT_FLOAT"}}}, {"name": "PartitionedCall/model_4/tf.math.add_72/Add", "op": "AddV2", "input": ["PartitionedCall/model_4/tf.nn.convolution_60/convolution", "13813"], "attr": {"T": {"type": "DT_FLOAT"}}}, {"name": "PartitionedCall/model_4/tf.math.sigmoid_55/Sigmoid", "op": "Sigmoid", "input": ["PartitionedCall/model_4/tf.math.add_71/Add"], "attr": {"T": {"type": "DT_FLOAT"}}}, {"name": "PartitionedCall/model_4/tf.math.sigmoid_56/Sigmoid", "op": "Sigmoid", "input": ["PartitionedCall/model_4/tf.math.add_72/Add"], "attr": {"T": {"type": "DT_FLOAT"}}}, {"name": "PartitionedCall/model_4/tf.math.multiply_235/Mul", "op": "Mul", "input": ["PartitionedCall/model_4/tf.math.add_71/Add", "PartitionedCall/model_4/tf.math.sigmoid_55/Sigmoid"], "attr": {"T": {"type": "DT_FLOAT"}}}, {"name": "PartitionedCall/model_4/tf.math.multiply_239/Mul", "op": "Mul", "input": ["PartitionedCall/model_4/tf.math.add_72/Add", "PartitionedCall/model_4/tf.math.sigmoid_56/Sigmoid"], "attr": {"T": {"type": "DT_FLOAT"}}}, {"name": "PartitionedCall/model_4/tf.nn.convolution_61/convolution", "op": "Conv2D", "input": ["PartitionedCall/model_4/tf.math.multiply_235/Mul", "13827"], "device": "/device:CPU:0", "attr": {"use_cudnn_on_gpu": {"b": true}, "explicit_paddings": {"list": {}}, "padding": {"s": "U0FNRQ=="}, "strides": {"list": {"i": ["1", "1", "1", "1"]}}, "data_format": {"s": "TkhXQw=="}, "dilations": {"list": {"i": ["1", "1", "1", "1"]}}, "T": {"type": "DT_FLOAT"}}}, {"name": "PartitionedCall/model_4/tf.nn.convolution_62/convolution", "op": "Conv2D", "input": ["PartitionedCall/model_4/tf.math.multiply_239/Mul", "13825"], "device": "/device:CPU:0", "attr": {"padding": {"s": "U0FNRQ=="}, "T": {"type": "DT_FLOAT"}, "strides": {"list": {"i": ["1", "1", "1", "1"]}}, "data_format": {"s": "TkhXQw=="}, "dilations": {"list": {"i": ["1", "1", "1", "1"]}}, "use_cudnn_on_gpu": {"b": true}, "explicit_paddings": {"list": {}}}}, {"name": "PartitionedCall/model_4/tf.math.add_73/Add", "op": "AddV2", "input": ["PartitionedCall/model_4/tf.nn.convolution_61/convolution", "13837"], "attr": {"T": {"type": "DT_FLOAT"}}}, {"name": "PartitionedCall/model_4/tf.math.add_74/Add", "op": "AddV2", "input": ["PartitionedCall/model_4/tf.nn.convolution_62/convolution", "13839"], "attr": {"T": {"type": "DT_FLOAT"}}}, {"name": "PartitionedCall/model_4/tf.concat_15/concat", "op": "ConcatV2", "input": ["PartitionedCall/model_4/tf.math.add_73/Add", "PartitionedCall/model_4/tf.math.add_74/Add", "PartitionedCall/model_4/tf.concat_15/concat/axis"], "attr": {"N": {"i": "2"}, "T": {"type": "DT_FLOAT"}, "Tidx": {"type": "DT_INT32"}}}, {"name": "PartitionedCall/model_4/tf.compat.v1.transpose_2/transpose", "op": "Transpose", "input": ["PartitionedCall/model_4/tf.concat_15/concat", "PartitionedCall/model_4/tf.compat.v1.transpose_2/transpose/perm"], "attr": {"Tperm": {"type": "DT_INT32"}, "T": {"type": "DT_FLOAT"}}}, {"name": "PartitionedCall/model_4/tf.reshape_2/Reshape", "op": "Reshape", "input": ["PartitionedCall/model_4/tf.compat.v1.transpose_2/transpose", "PartitionedCall/model_4/tf.reshape_2/Reshape/shape"], "attr": {"Tshape": {"type": "DT_INT32"}, "T": {"type": "DT_FLOAT"}}}, {"name": "PartitionedCall/model_4/tf.concat_16/concat", "op": "ConcatV2", "input": ["PartitionedCall/model_4/tf.reshape/Reshape", "PartitionedCall/model_4/tf.reshape_1/Reshape", "PartitionedCall/model_4/tf.reshape_2/Reshape", "PartitionedCall/model_4/tf.concat_16/concat/axis"], "attr": {"Tidx": {"type": "DT_INT32"}, "T": {"type": "DT_FLOAT"}, "N": {"i": "3"}}}, {"name": "PartitionedCall/model_4/tf.strided_slice_16/StridedSlice", "op": "StridedSlice", "input": ["PartitionedCall/model_4/tf.concat_16/concat", "13849", "13851", "PartitionedCall/model_4/tf.strided_slice_16/StridedSlice/strides"], "attr": {"new_axis_mask": {"i": "0"}, "shrink_axis_mask": {"i": "0"}, "Index": {"type": "DT_INT64"}, "T": {"type": "DT_FLOAT"}, "ellipsis_mask": {"i": "0"}, "begin_mask": {"i": "7"}, "end_mask": {"i": "5"}}}, {"name": "PartitionedCall/model_4/tf.strided_slice_17/StridedSlice", "op": "StridedSlice", "input": ["PartitionedCall/model_4/tf.concat_16/concat", "13869", "13871", "PartitionedCall/model_4/tf.strided_slice_17/StridedSlice/strides"], "attr": {"shrink_axis_mask": {"i": "0"}, "end_mask": {"i": "5"}, "T": {"type": "DT_FLOAT"}, "new_axis_mask": {"i": "0"}, "ellipsis_mask": {"i": "0"}, "Index": {"type": "DT_INT64"}, "begin_mask": {"i": "5"}}}, {"name": "PartitionedCall/model_4/tf.reshape_3/Reshape", "op": "Reshape", "input": ["PartitionedCall/model_4/tf.strided_slice_16/StridedSlice", "PartitionedCall/model_4/tf.reshape_3/Reshape/shape"], "attr": {"Tshape": {"type": "DT_INT32"}, "T": {"type": "DT_FLOAT"}}}, {"name": "PartitionedCall/model_4/tf.math.sigmoid_57/Sigmoid", "op": "Sigmoid", "input": ["PartitionedCall/model_4/tf.strided_slice_17/StridedSlice"], "attr": {"T": {"type": "DT_FLOAT"}}}, {"name": "PartitionedCall/model_4/tf.compat.v1.transpose_4/transpose", "op": "Transpose", "input": ["PartitionedCall/model_4/tf.reshape_3/Reshape", "PartitionedCall/model_4/tf.compat.v1.transpose_4/transpose/perm"], "attr": {"T": {"type": "DT_FLOAT"}, "Tperm": {"type": "DT_INT32"}}}, {"name": "PartitionedCall/model_4/tf.compat.v1.transpose_5/transpose", "op": "Transpose", "input": ["PartitionedCall/model_4/tf.compat.v1.transpose_4/transpose", "PartitionedCall/model_4/tf.compat.v1.transpose_5/transpose/perm"], "attr": {"Tperm": {"type": "DT_INT32"}, "T": {"type": "DT_FLOAT"}}}, {"name": "PartitionedCall/model_4/tf.nn.softmax_3//model.22/dfl/Softmax", "op": "Softmax", "input": ["PartitionedCall/model_4/tf.compat.v1.transpose_5/transpose"], "attr": {"T": {"type": "DT_FLOAT"}}}, {"name": "PartitionedCall/model_4/tf.nn.convolution_63/convolution", "op": "Conv2D", "input": ["PartitionedCall/model_4/tf.nn.softmax_3//model.22/dfl/Softmax", "13853"], "device": "/device:CPU:0", "attr": {"strides": {"list": {"i": ["1", "1", "1", "1"]}}, "use_cudnn_on_gpu": {"b": true}, "T": {"type": "DT_FLOAT"}, "explicit_paddings": {"list": {}}, "data_format": {"s": "TkhXQw=="}, "dilations": {"list": {"i": ["1", "1", "1", "1"]}}, "padding": {"s": "U0FNRQ=="}}}, {"name": "PartitionedCall/model_4/tf.compat.v1.transpose_8/transpose", "op": "Transpose", "input": ["PartitionedCall/model_4/tf.nn.convolution_63/convolution", "PartitionedCall/model_4/tf.compat.v1.transpose_8/transpose/perm"], "attr": {"T": {"type": "DT_FLOAT"}, "Tperm": {"type": "DT_INT32"}}}, {"name": "PartitionedCall/model_4/tf.reshape_4/Reshape", "op": "Reshape", "input": ["PartitionedCall/model_4/tf.compat.v1.transpose_8/transpose", "PartitionedCall/model_4/tf.reshape_4/Reshape/shape"], "attr": {"Tshape": {"type": "DT_INT32"}, "T": {"type": "DT_FLOAT"}}}, {"name": "PartitionedCall/model_4/tf.strided_slice_19/StridedSlice", "op": "StridedSlice", "input": ["PartitionedCall/model_4/tf.reshape_4/Reshape", "13855", "13857", "PartitionedCall/model_4/tf.strided_slice_19/ones_like"], "attr": {"new_axis_mask": {"i": "0"}, "shrink_axis_mask": {"i": "0"}, "begin_mask": {"i": "5"}, "T": {"type": "DT_FLOAT"}, "Index": {"type": "DT_INT64"}, "ellipsis_mask": {"i": "0"}, "end_mask": {"i": "5"}}}, {"name": "PartitionedCall/model_4/tf.strided_slice_18/StridedSlice", "op": "StridedSlice", "input": ["PartitionedCall/model_4/tf.reshape_4/Reshape", "13859", "13861", "PartitionedCall/model_4/tf.strided_slice_18/ones_like"], "attr": {"shrink_axis_mask": {"i": "0"}, "new_axis_mask": {"i": "0"}, "Index": {"type": "DT_INT64"}, "T": {"type": "DT_FLOAT"}, "ellipsis_mask": {"i": "0"}, "begin_mask": {"i": "7"}, "end_mask": {"i": "5"}}}, {"name": "PartitionedCall/model_4/tf.math.add_75/Add", "op": "AddV2", "input": ["13863", "PartitionedCall/model_4/tf.strided_slice_19/StridedSlice"], "attr": {"T": {"type": "DT_FLOAT"}}}, {"name": "PartitionedCall/model_4/tf.math.subtract/Sub", "op": "Sub", "input": ["13865", "PartitionedCall/model_4/tf.strided_slice_18/StridedSlice"], "attr": {"T": {"type": "DT_FLOAT"}}}, {"name": "PartitionedCall/model_4/tf.math.add_76/Add", "op": "AddV2", "input": ["PartitionedCall/model_4/tf.math.subtract/Sub", "PartitionedCall/model_4/tf.math.add_75/Add"], "attr": {"T": {"type": "DT_FLOAT"}}}, {"name": "PartitionedCall/model_4/tf.math.subtract_1/Sub", "op": "Sub", "input": ["PartitionedCall/model_4/tf.math.add_75/Add", "PartitionedCall/model_4/tf.math.subtract/Sub"], "attr": {"T": {"type": "DT_FLOAT"}}}, {"name": "PartitionedCall/model_4/tf.math.divide/truediv", "op": "Mul", "input": ["PartitionedCall/model_4/tf.math.add_76/Add", "ConstantFolding/PartitionedCall/model_4/tf.math.divide/truediv_recip"], "attr": {"T": {"type": "DT_FLOAT"}}}, {"name": "PartitionedCall/model_4/tf.concat_17/concat", "op": "ConcatV2", "input": ["PartitionedCall/model_4/tf.math.divide/truediv", "PartitionedCall/model_4/tf.math.subtract_1/Sub", "PartitionedCall/model_4/tf.concat_17/concat/axis"], "attr": {"Tidx": {"type": "DT_INT32"}, "T": {"type": "DT_FLOAT"}, "N": {"i": "2"}}}, {"name": "PartitionedCall/model_4/tf.math.multiply_252/Mul", "op": "Mul", "input": ["PartitionedCall/model_4/tf.concat_17/concat", "PartitionedCall/model_4/tf.math.multiply_252/Mul/y"], "attr": {"T": {"type": "DT_FLOAT"}}}, {"name": "PartitionedCall/model_4/output0/concat", "op": "ConcatV2", "input": ["PartitionedCall/model_4/tf.math.multiply_252/Mul", "PartitionedCall/model_4/tf.math.sigmoid_57/Sigmoid", "PartitionedCall/model_4/output0/concat/axis"], "attr": {"Tidx": {"type": "DT_INT32"}, "T": {"type": "DT_FLOAT"}, "N": {"i": "2"}}}, {"name": "Identity", "op": "Identity", "input": ["PartitionedCall/model_4/output0/concat"], "attr": {"T": {"type": "DT_FLOAT"}}}], "library": {}, "versions": {"producer": 1482}}, "weightsManifest": [{"paths": ["group1-shard1of11.bin", "group1-shard2of11.bin", "group1-shard3of11.bin", "group1-shard4of11.bin", "group1-shard5of11.bin", "group1-shard6of11.bin", "group1-shard7of11.bin", "group1-shard8of11.bin", "group1-shard9of11.bin", "group1-shard10of11.bin", "group1-shard11of11.bin"], "weights": [{"name": "ConstantFolding/PartitionedCall/model_4/tf.math.divide/truediv_recip", "shape": [1, 1, 1], "dtype": "float32"}, {"name": "13863", "shape": [1, 2, 8400], "dtype": "float32"}, {"name": "13855", "shape": [3], "dtype": "int32"}, {"name": "13857", "shape": [3], "dtype": "int32"}, {"name": "PartitionedCall/model_4/tf.strided_slice_19/ones_like", "shape": [3], "dtype": "int32"}, {"name": "13865", "shape": [1, 2, 8400], "dtype": "float32"}, {"name": "13849", "shape": [3], "dtype": "int32"}, {"name": "13851", "shape": [3], "dtype": "int32"}, {"name": "PartitionedCall/model_4/tf.strided_slice_16/StridedSlice/strides", "shape": [3], "dtype": "int32"}, {"name": "PartitionedCall/model_4/tf.reshape_3/Reshape/shape", "shape": [4], "dtype": "int32"}, {"name": "PartitionedCall/model_4/tf.compat.v1.transpose_4/transpose/perm", "shape": [4], "dtype": "int32"}, {"name": "PartitionedCall/model_4/tf.compat.v1.transpose_5/transpose/perm", "shape": [4], "dtype": "int32"}, {"name": "13853", "shape": [1, 1, 16, 1], "dtype": "float32"}, {"name": "PartitionedCall/model_4/tf.compat.v1.transpose_8/transpose/perm", "shape": [4], "dtype": "int32"}, {"name": "PartitionedCall/model_4/tf.reshape_4/Reshape/shape", "shape": [3], "dtype": "int32"}, {"name": "13859", "shape": [3], "dtype": "int32"}, {"name": "13861", "shape": [3], "dtype": "int32"}, {"name": "PartitionedCall/model_4/tf.strided_slice_18/ones_like", "shape": [3], "dtype": "int32"}, {"name": "PartitionedCall/model_4/tf.concat_17/concat/axis", "shape": [], "dtype": "int32"}, {"name": "PartitionedCall/model_4/tf.math.multiply_252/Mul/y", "shape": [1, 1, 8400], "dtype": "float32"}, {"name": "13787", "shape": [3, 3, 128, 64], "dtype": "float32"}, {"name": "13799", "shape": [64], "dtype": "float32"}, {"name": "13811", "shape": [3, 3, 64, 64], "dtype": "float32"}, {"name": "13823", "shape": [64], "dtype": "float32"}, {"name": "13835", "shape": [1, 1, 64, 64], "dtype": "float32"}, {"name": "13845", "shape": [64], "dtype": "float32"}, {"name": "13785", "shape": [3, 3, 128, 128], "dtype": "float32"}, {"name": "13797", "shape": [128], "dtype": "float32"}, {"name": "13809", "shape": [3, 3, 128, 128], "dtype": "float32"}, {"name": "13821", "shape": [128], "dtype": "float32"}, {"name": "13833", "shape": [1, 1, 128, 8], "dtype": "float32"}, {"name": "13847", "shape": [8], "dtype": "float32"}, {"name": "PartitionedCall/model_4/tf.concat_10/concat/axis", "shape": [], "dtype": "int32"}, {"name": "PartitionedCall/model_4/tf.compat.v1.transpose/transpose/perm", "shape": [4], "dtype": "int32"}, {"name": "PartitionedCall/model_4/tf.reshape/Reshape/shape", "shape": [3], "dtype": "int32"}, {"name": "13783", "shape": [3, 3, 256, 64], "dtype": "float32"}, {"name": "13795", "shape": [64], "dtype": "float32"}, {"name": "13807", "shape": [3, 3, 64, 64], "dtype": "float32"}, {"name": "13819", "shape": [64], "dtype": "float32"}, {"name": "13831", "shape": [1, 1, 64, 64], "dtype": "float32"}, {"name": "13841", "shape": [64], "dtype": "float32"}, {"name": "13781", "shape": [3, 3, 256, 128], "dtype": "float32"}, {"name": "13793", "shape": [128], "dtype": "float32"}, {"name": "13805", "shape": [3, 3, 128, 128], "dtype": "float32"}, {"name": "13817", "shape": [128], "dtype": "float32"}, {"name": "13829", "shape": [1, 1, 128, 8], "dtype": "float32"}, {"name": "13843", "shape": [8], "dtype": "float32"}, {"name": "PartitionedCall/model_4/tf.concat_13/concat/axis", "shape": [], "dtype": "int32"}, {"name": "PartitionedCall/model_4/tf.compat.v1.transpose_1/transpose/perm", "shape": [4], "dtype": "int32"}, {"name": "PartitionedCall/model_4/tf.reshape_1/Reshape/shape", "shape": [3], "dtype": "int32"}, {"name": "13779", "shape": [3, 3, 512, 64], "dtype": "float32"}, {"name": "13791", "shape": [64], "dtype": "float32"}, {"name": "13803", "shape": [3, 3, 64, 64], "dtype": "float32"}, {"name": "13815", "shape": [64], "dtype": "float32"}, {"name": "13827", "shape": [1, 1, 64, 64], "dtype": "float32"}, {"name": "13837", "shape": [64], "dtype": "float32"}, {"name": "13769", "shape": [4], "dtype": "int32"}, {"name": "13771", "shape": [4], "dtype": "int32"}, {"name": "PartitionedCall/model_4/tf.strided_slice_14/ones_like", "shape": [4], "dtype": "int32"}, {"name": "13739", "shape": [4], "dtype": "int32"}, {"name": "13741", "shape": [4], "dtype": "int32"}, {"name": "PartitionedCall/model_4/tf.strided_slice_12/ones_like", "shape": [4], "dtype": "int32"}, {"name": "13709", "shape": [4], "dtype": "int32"}, {"name": "13711", "shape": [4], "dtype": "int32"}, {"name": "PartitionedCall/model_4/tf.strided_slice_10/ones_like", "shape": [4], "dtype": "int32"}, {"name": "PartitionedCall/model_4/lambda_1//model.13/Resize/size", "shape": [2], "dtype": "int32"}, {"name": "PartitionedCall/model_4/tf.concat_7/concat/axis", "shape": [], "dtype": "int32"}, {"name": "13693", "shape": [1, 1, 384, 128], "dtype": "float32"}, {"name": "13695", "shape": [128], "dtype": "float32"}, {"name": "13697", "shape": [4], "dtype": "int32"}, {"name": "13699", "shape": [4], "dtype": "int32"}, {"name": "PartitionedCall/model_4/tf.strided_slice_11/ones_like", "shape": [4], "dtype": "int32"}, {"name": "13701", "shape": [3, 3, 64, 64], "dtype": "float32"}, {"name": "13703", "shape": [64], "dtype": "float32"}, {"name": "13705", "shape": [3, 3, 64, 64], "dtype": "float32"}, {"name": "13707", "shape": [64], "dtype": "float32"}, {"name": "PartitionedCall/model_4/tf.concat_8/concat/axis", "shape": [], "dtype": "int32"}, {"name": "13713", "shape": [1, 1, 192, 128], "dtype": "float32"}, {"name": "13715", "shape": [128], "dtype": "float32"}, {"name": "13717", "shape": [4, 2], "dtype": "int32"}, {"name": "13719", "shape": [3, 3, 128, 128], "dtype": "float32"}, {"name": "13721", "shape": [128], "dtype": "float32"}, {"name": "13685", "shape": [4], "dtype": "int32"}, {"name": "13687", "shape": [4], "dtype": "int32"}, {"name": "PartitionedCall/model_4/tf.strided_slice_8/ones_like", "shape": [4], "dtype": "int32"}, {"name": "PartitionedCall/model_4/lambda//model.10/Resize/size", "shape": [2], "dtype": "int32"}, {"name": "PartitionedCall/model_4/tf.concat_5/concat/axis", "shape": [], "dtype": "int32"}, {"name": "13669", "shape": [1, 1, 768, 256], "dtype": "float32"}, {"name": "13671", "shape": [256], "dtype": "float32"}, {"name": "13673", "shape": [4], "dtype": "int32"}, {"name": "13675", "shape": [4], "dtype": "int32"}, {"name": "PartitionedCall/model_4/tf.strided_slice_9/ones_like", "shape": [4], "dtype": "int32"}, {"name": "13677", "shape": [3, 3, 128, 128], "dtype": "float32"}, {"name": "13679", "shape": [128], "dtype": "float32"}, {"name": "13681", "shape": [3, 3, 128, 128], "dtype": "float32"}, {"name": "13683", "shape": [128], "dtype": "float32"}, {"name": "PartitionedCall/model_4/tf.concat_6/concat/axis", "shape": [], "dtype": "int32"}, {"name": "13689", "shape": [1, 1, 384, 256], "dtype": "float32"}, {"name": "13691", "shape": [256], "dtype": "float32"}, {"name": "PartitionedCall/model_4/tf.concat_9/concat/axis", "shape": [], "dtype": "int32"}, {"name": "13723", "shape": [1, 1, 384, 256], "dtype": "float32"}, {"name": "13725", "shape": [256], "dtype": "float32"}, {"name": "13727", "shape": [4], "dtype": "int32"}, {"name": "13729", "shape": [4], "dtype": "int32"}, {"name": "PartitionedCall/model_4/tf.strided_slice_13/ones_like", "shape": [4], "dtype": "int32"}, {"name": "13731", "shape": [3, 3, 128, 128], "dtype": "float32"}, {"name": "13733", "shape": [128], "dtype": "float32"}, {"name": "13735", "shape": [3, 3, 128, 128], "dtype": "float32"}, {"name": "13737", "shape": [128], "dtype": "float32"}, {"name": "PartitionedCall/model_4/tf.concat_11/concat/axis", "shape": [], "dtype": "int32"}, {"name": "13743", "shape": [1, 1, 384, 256], "dtype": "float32"}, {"name": "13745", "shape": [256], "dtype": "float32"}, {"name": "13747", "shape": [4, 2], "dtype": "int32"}, {"name": "13749", "shape": [3, 3, 256, 256], "dtype": "float32"}, {"name": "13751", "shape": [256], "dtype": "float32"}, {"name": "13653", "shape": [4], "dtype": "int32"}, {"name": "13655", "shape": [4], "dtype": "int32"}, {"name": "PartitionedCall/model_4/tf.strided_slice_6/ones_like", "shape": [4], "dtype": "int32"}, {"name": "13623", "shape": [4], "dtype": "int32"}, {"name": "13625", "shape": [4], "dtype": "int32"}, {"name": "PartitionedCall/model_4/tf.strided_slice_4/ones_like", "shape": [4], "dtype": "int32"}, {"name": "13585", "shape": [4], "dtype": "int32"}, {"name": "13587", "shape": [4], "dtype": "int32"}, {"name": "PartitionedCall/model_4/tf.strided_slice_2/ones_like", "shape": [4], "dtype": "int32"}, {"name": "13547", "shape": [4], "dtype": "int32"}, {"name": "13549", "shape": [4], "dtype": "int32"}, {"name": "PartitionedCall/model_4/tf.strided_slice/ones_like", "shape": [4], "dtype": "int32"}, {"name": "13519", "shape": [4, 2], "dtype": "int32"}, {"name": "13521", "shape": [3, 3, 3, 32], "dtype": "float32"}, {"name": "13523", "shape": [32], "dtype": "float32"}, {"name": "13525", "shape": [4, 2], "dtype": "int32"}, {"name": "13527", "shape": [3, 3, 32, 64], "dtype": "float32"}, {"name": "13529", "shape": [64], "dtype": "float32"}, {"name": "13531", "shape": [1, 1, 64, 64], "dtype": "float32"}, {"name": "13533", "shape": [64], "dtype": "float32"}, {"name": "13535", "shape": [4], "dtype": "int32"}, {"name": "13537", "shape": [4], "dtype": "int32"}, {"name": "PartitionedCall/model_4/tf.strided_slice_1/ones_like", "shape": [4], "dtype": "int32"}, {"name": "13539", "shape": [3, 3, 32, 32], "dtype": "float32"}, {"name": "13541", "shape": [32], "dtype": "float32"}, {"name": "13543", "shape": [3, 3, 32, 32], "dtype": "float32"}, {"name": "13545", "shape": [32], "dtype": "float32"}, {"name": "PartitionedCall/model_4/tf.concat/concat/axis", "shape": [], "dtype": "int32"}, {"name": "13551", "shape": [1, 1, 96, 64], "dtype": "float32"}, {"name": "13553", "shape": [64], "dtype": "float32"}, {"name": "13555", "shape": [4, 2], "dtype": "int32"}, {"name": "13557", "shape": [3, 3, 64, 128], "dtype": "float32"}, {"name": "13559", "shape": [128], "dtype": "float32"}, {"name": "13561", "shape": [1, 1, 128, 128], "dtype": "float32"}, {"name": "13563", "shape": [128], "dtype": "float32"}, {"name": "13565", "shape": [4], "dtype": "int32"}, {"name": "13567", "shape": [4], "dtype": "int32"}, {"name": "PartitionedCall/model_4/tf.strided_slice_3/ones_like", "shape": [4], "dtype": "int32"}, {"name": "13569", "shape": [3, 3, 64, 64], "dtype": "float32"}, {"name": "13571", "shape": [64], "dtype": "float32"}, {"name": "13573", "shape": [3, 3, 64, 64], "dtype": "float32"}, {"name": "13575", "shape": [64], "dtype": "float32"}, {"name": "13577", "shape": [3, 3, 64, 64], "dtype": "float32"}, {"name": "13579", "shape": [64], "dtype": "float32"}, {"name": "13581", "shape": [3, 3, 64, 64], "dtype": "float32"}, {"name": "13583", "shape": [64], "dtype": "float32"}, {"name": "PartitionedCall/model_4/tf.concat_1/concat/axis", "shape": [], "dtype": "int32"}, {"name": "13589", "shape": [1, 1, 256, 128], "dtype": "float32"}, {"name": "13591", "shape": [128], "dtype": "float32"}, {"name": "13593", "shape": [4, 2], "dtype": "int32"}, {"name": "13595", "shape": [3, 3, 128, 256], "dtype": "float32"}, {"name": "13597", "shape": [256], "dtype": "float32"}, {"name": "13599", "shape": [1, 1, 256, 256], "dtype": "float32"}, {"name": "13601", "shape": [256], "dtype": "float32"}, {"name": "13603", "shape": [4], "dtype": "int32"}, {"name": "13605", "shape": [4], "dtype": "int32"}, {"name": "PartitionedCall/model_4/tf.strided_slice_5/ones_like", "shape": [4], "dtype": "int32"}, {"name": "13607", "shape": [3, 3, 128, 128], "dtype": "float32"}, {"name": "13609", "shape": [128], "dtype": "float32"}, {"name": "13611", "shape": [3, 3, 128, 128], "dtype": "float32"}, {"name": "13613", "shape": [128], "dtype": "float32"}, {"name": "13615", "shape": [3, 3, 128, 128], "dtype": "float32"}, {"name": "13617", "shape": [128], "dtype": "float32"}, {"name": "13619", "shape": [3, 3, 128, 128], "dtype": "float32"}, {"name": "13621", "shape": [128], "dtype": "float32"}, {"name": "PartitionedCall/model_4/tf.concat_2/concat/axis", "shape": [], "dtype": "int32"}, {"name": "13627", "shape": [1, 1, 512, 256], "dtype": "float32"}, {"name": "13629", "shape": [256], "dtype": "float32"}, {"name": "13631", "shape": [4, 2], "dtype": "int32"}, {"name": "13633", "shape": [3, 3, 256, 512], "dtype": "float32"}, {"name": "13635", "shape": [512], "dtype": "float32"}, {"name": "13637", "shape": [1, 1, 512, 512], "dtype": "float32"}, {"name": "13639", "shape": [512], "dtype": "float32"}, {"name": "13641", "shape": [4], "dtype": "int32"}, {"name": "13643", "shape": [4], "dtype": "int32"}, {"name": "PartitionedCall/model_4/tf.strided_slice_7/ones_like", "shape": [4], "dtype": "int32"}, {"name": "13645", "shape": [3, 3, 256, 256], "dtype": "float32"}, {"name": "13647", "shape": [256], "dtype": "float32"}, {"name": "13649", "shape": [3, 3, 256, 256], "dtype": "float32"}, {"name": "13651", "shape": [256], "dtype": "float32"}, {"name": "PartitionedCall/model_4/tf.concat_3/concat/axis", "shape": [], "dtype": "int32"}, {"name": "13657", "shape": [1, 1, 768, 512], "dtype": "float32"}, {"name": "13659", "shape": [512], "dtype": "float32"}, {"name": "13661", "shape": [1, 1, 512, 256], "dtype": "float32"}, {"name": "13663", "shape": [256], "dtype": "float32"}, {"name": "PartitionedCall/model_4/tf.concat_4/concat/axis", "shape": [], "dtype": "int32"}, {"name": "13665", "shape": [1, 1, 1024, 512], "dtype": "float32"}, {"name": "13667", "shape": [512], "dtype": "float32"}, {"name": "PartitionedCall/model_4/tf.concat_12/concat/axis", "shape": [], "dtype": "int32"}, {"name": "13753", "shape": [1, 1, 768, 512], "dtype": "float32"}, {"name": "13755", "shape": [512], "dtype": "float32"}, {"name": "13757", "shape": [4], "dtype": "int32"}, {"name": "13759", "shape": [4], "dtype": "int32"}, {"name": "PartitionedCall/model_4/tf.strided_slice_15/ones_like", "shape": [4], "dtype": "int32"}, {"name": "13761", "shape": [3, 3, 256, 256], "dtype": "float32"}, {"name": "13763", "shape": [256], "dtype": "float32"}, {"name": "13765", "shape": [3, 3, 256, 256], "dtype": "float32"}, {"name": "13767", "shape": [256], "dtype": "float32"}, {"name": "PartitionedCall/model_4/tf.concat_14/concat/axis", "shape": [], "dtype": "int32"}, {"name": "13773", "shape": [1, 1, 768, 512], "dtype": "float32"}, {"name": "13775", "shape": [512], "dtype": "float32"}, {"name": "13777", "shape": [3, 3, 512, 128], "dtype": "float32"}, {"name": "13789", "shape": [128], "dtype": "float32"}, {"name": "13801", "shape": [3, 3, 128, 128], "dtype": "float32"}, {"name": "13813", "shape": [128], "dtype": "float32"}, {"name": "13825", "shape": [1, 1, 128, 8], "dtype": "float32"}, {"name": "13839", "shape": [8], "dtype": "float32"}, {"name": "PartitionedCall/model_4/tf.concat_15/concat/axis", "shape": [], "dtype": "int32"}, {"name": "PartitionedCall/model_4/tf.compat.v1.transpose_2/transpose/perm", "shape": [4], "dtype": "int32"}, {"name": "PartitionedCall/model_4/tf.reshape_2/Reshape/shape", "shape": [3], "dtype": "int32"}, {"name": "PartitionedCall/model_4/tf.concat_16/concat/axis", "shape": [], "dtype": "int32"}, {"name": "13869", "shape": [3], "dtype": "int32"}, {"name": "13871", "shape": [3], "dtype": "int32"}, {"name": "PartitionedCall/model_4/tf.strided_slice_17/StridedSlice/strides", "shape": [3], "dtype": "int32"}, {"name": "PartitionedCall/model_4/output0/concat/axis", "shape": [], "dtype": "int32"}]}]}